Graph/graph_generator_model.pth (torch, 98858 bytes, 19 tensors)

conv1.att_src f4 [1, 1, 64]
00000000: dae0 ecbd 6591 5f3e 0a13 733e 532b 863e
00000010: 560f 923e 9158 683e 8036 dc3d fe4b b93c
00000020: d092 91bb a9ac 3b3d ce70 93be 5e52 eabc
00000030: a35f fabd b738 213e 55bc 1c3e d69b 333e
00000040: d8ec fcbd 06ce a93d 0207 aabd 21ca 893e
00000050: 1555 89be 0d8c 36bd ae94 cf3d 88c2 8f3e
00000060: 11f0 08be 23b1 663e 95b5 5fbe 6a0c 013e
00000070: 5d4b 703e 9c99 0f3e b2d0 54be 18df 3b3d
00000080: 9e34 253e 05e8 74be f744 143d f983 853d
00000090: 1731 7d3d e9f1 143e eaac cabb 0e6e 4fbe
000000a0: b610 933d f37f 9cbe 2b11 173e 2adc 023e
000000b0: 1994 7ebd 9c69 9abc 123c abbc f4dc 813e
000000c0: bd5c e1bd 8906 8c3e 91b4 8d3e fcc2 5d3d
000000d0: 3c18 24be 659b 8ebe 194e ddbc f0df f43d
000000e0: e676 81be dfa6 3b3e b729 903d 37c5 923e
000000f0: 6c19 1abd 085f c0bb 80b6 4e3e f124 04be
-0.115663245 0.21832807 0.23737732 0.2620493 0.28527325 0.22690035 0.107525826 0.022619244
-0.0044425502 0.04581896 -0.28797 -0.028603729 -0.122252725 0.15744291 0.15306218 0.17539915
-0.12349862 0.08291249 -0.08302118 0.26912025 -0.26822725 -0.044567157 0.1013578 0.28078103
-0.13372828 0.2252851 -0.21846612 0.12602392 0.23466249 0.14023441 -0.20782736 0.045867056
0.16133353 -0.23916633 0.036198583 0.065193124 0.061814394 0.14545406 -0.0061851637 -0.20256826
0.07180922 -0.30566368 0.14752643 0.12779298 -0.062152956 -0.018849187 -0.020902667 0.25363886
-0.110040165 0.27348736 0.27676824 0.05414103 -0.1602487 -0.27852932 -0.027014779 0.11956775
-0.25286025 0.18325375 0.070392065 0.28666088 -0.0376219 -0.0058707036 0.20186806 -0.12904717

conv1.att_dst f4 [1, 1, 64]
00000000: 88e7 45be d283 553a 46c6 7dbe 23bd b0bd
00000010: 89ef 303d c82f 163e 02b2 e83d 5892 383e
00000020: bb6b 94bd d37f a0bc cd3b 09be b23e 793e
00000030: f15f b1bc 762c 093e f671 473e 5c5c 5cbe
00000040: 155d 8c3e 2c55 11bd b405 02bd 10ee 7a3e
00000050: 9b01 133e 5d99 94bd 1545 8abe 7a55 85be
00000060: 3be8 a53d 9973 513d 3a85 ddbd e8be 933e
00000070: 2c02 143e 2d36 83be bd45 8b3d 14f4 e73d
00000080: 7c47 973e 33da 663e cded 1a3e dec2 38bd
00000090: 7b0f 42be d677 bf3d 2494 193e 182a 65be
000000a0: 78d1 40be 67d8 72be 0106 f23d 06a9 97be
000000b0: 79f2 31be 5b6b 81bd b00a 9abe 61f2 6e3e
000000c0: 8837 4bbe 6649 79bd f8d3 323e 6e76 6b3e
000000d0: 9a2c 8c3e 6dd2 95be ab3e 4ebc 6459 98be
000000e0: 8a60 a13d c160 a03d 3a1b a2bd c391 3fbe
000000f0: 0793 2abe e673 903d 2ee1 a33d 2605 543e
-0.19326603 0.0008144948 -0.24782667 -0.08629825 0.04319719 0.14666665 0.11362077 0.18024576
-0.072471105 -0.019592201 -0.13401718 0.24340323 -0.021652194 0.13395867 0.19477066 -0.21519607
0.27414766 -0.035481617 -0.03174372 0.24504876 0.14356081 -0.07255814 -0.2700583 -0.26041776
0.08100935 0.051135633 -0.108164266 0.28856587 0.14453954 -0.2562727 0.06800411 0.11325851
0.29546726 0.22544174 0.15129776 -0.045107715 -0.18951218 0.09349029 0.14997917 -0.22379339
-0.18829906 -0.23715363 0.118175514 -0.29621142 -0.17377652 -0.063193046 -0.3008628 0.23334648
-0.19845402 -0.060861014 0.17463672 0.22994396 0.27377778 -0.29262105 -0.012588183 -0.297557
0.078797415 0.07830954 -0.07915349 -0.18707947 -0.16657649 0.07053356 0.08001934 0.20705089

conv1.bias f4 [64]
00000000: 0000 0000 81c5 20bc 979b 91bb f1f4 2cbc
00000010: bf6a 2f3c 7ec1 08bc def6 253c 41cc 9ebb
00000020: dc42 05bc 7706 443c db70 2d3c 86a6 843b
00000030: e20e 373c 33c5 b6bb 0000 0000 0000 0000
00000040: 0000 0000 0000 0000 12ae 5a3c c784 00bc
00000050: 0000 0000 0000 0000 3064 07bc 6041 b83b
00000060: 0000 0000 0000 0000 0000 0000 0000 0000
00000070: eab5 d93d 0000 0000 9a26 213c 0000 0000
00000080: 8afe 16bc ea06 093c 071d e93b 0000 0000
00000090: 0000 0000 0000 0000 0000 0000 c208 883c
000000a0: 00b9 34bc 39cf 633c 9d08 21bc 0000 0000
000000b0: 01dd 0d3c 0000 0000 0000 0000 0000 0000
000000c0: b710 f9bb 6336 523c a68f 133c 3b73 2e3c
000000d0: 0000 0000 da12 48bb 0000 0000 87f5 64ba
000000e0: f248 23bc 0000 0000 04c1 0bbc 0000 0000
000000f0: 0000 0000 0000 0000 0000 0000 511a 0f3c
0.0 -0.009812714 -0.0044435966 -0.010556445 0.010706603 -0.008346913 0.0101296585 -0.0048461263
-0.008133616 0.011964432 0.010585989 0.0040481715 0.011172982 -0.005577707 0.0 0.0
0.0 0.0 0.013347166 -0.007844157 0.0 0.0 -0.008263633 0.0056230277
0.0 0.0 0.0 0.0 0.106304005 0.0 0.0098358635 0.0
-0.00921596 0.008363465 0.007114056 0.0 0.0 0.0 0.0 0.016605739
-0.011030436 0.013904386 -0.009828714 0.0 0.0086586485 0.0 0.0 0.0
-0.0076008695 0.01283035 0.009006416 0.01064759 0.0 -0.0030528815 0.0 -0.0008734096
-0.009966122 0.0 -0.008529905 0.0 0.0 0.0 0.0 0.008734302

conv1.lin.weight f4 [64, 13]
00000000: f46c 8a3e 2366 883e 1e95 a4bd a703 2fbe
00000010: 2799 843e aaf4 013e f590 7a3d 1f72 863e
00000020: 1788 cebd 5e34 eebd 52a6 80be e474 6dbe
00000030: bc35 533e ea4a ddbd 250d 303e cfc1 723e
00000040: 8ea3 7b3e c038 73bd e6d8 83be f148 7f3e
00000050: 4e6d 4bbe 211e 9c3a 0a6e abbc 6750 173d
00000060: 830e 35bd 1bce e53d e0ef 8c3e c15d 10be
00000070: 1cf0 5ebe 321c 0a3d c51f 26be 2dbb 97bd
00000080: 3dd2 833e 64ec 183e d8c3 603e a534 3abe
00000090: 3aaa 2f3d 0891 603e 6dda 85be 21ca 24be
000000a0: 5f64 91bd 31c6 783e 0619 6dbd 9619 183d
000000b0: d3a1 57bd 3f35 4abe 949a 863d 5180 cf3d
000000c0: 1845 093e 4476 c4bd 55b2 6fbd aaae 583e
000000d0: 412e 1a3e 753e f2bc 8d30 7dbc b4fd be3d
000000e0: 2bdc 12be 850f 16be 0552 38bd 09f3 ddbd
000000f0: ed65 0a3e d4ad 22be ad98 07be 8e5f d13b
00000100: d6bc f9bd 11dd abbd 1971 9abd 39b6 2bbd
00000110: 5bc5 dcbd 584d 47be 3884 773e 11d0 42bd
00000120: ae44 07be 61a3 353e f715 88bd a138 533e
00000130: 2cf7 7abd 519d 41be 6fe5 50be 5825 3abe
00000140: cb61 d43d 8d30 14be 1aa8 513e 87cd 133e
00000150: 5322 83be 3306 043e f464 653e d759 28be
00000160: c6d7 43be 97ab d73d 939c 243e a000 233e
00000170: fefd 8e3e e996 633e 86c6 eb3c aa6c f73d
00000180: ecad a13c e70a 493e 0aeb 773d fea8 5a3e
00000190: 3aad b93d 591a 8fbe 008c 2d3e 7db8 9dbd
000001a0: 4f4f d03d 7649 5d3e 84cc 513e b162 82be
000001b0: b5b7 e13d 2c84 e0bb 135c 5b3d b56d 02be
000001c0: 2698 8a3e e8b6 34be 5d14 66be 519d 82be
000001d0: 1a61 5abe 1175 453e 649e 26bd 6b26 75bc
000001e0: af75 e43d 4035 843e 9a09 5b3d d1d8 0c3e
000001f0: b043 513d b1b0 943d 1e33 0ebd cf0d e93d
00000200: cd43 21be af64 8e3d 911e b33d a6af 4abe
00000210: 7a64 c9bd 718c 21be 07e8 223e 0bf5 473e
00000220: d97b 863e 573a 0d3e 1f86 553e 8333 873e
00000230: f4a1 8d3e 9723 823e 7c46 fa3c 7fa8 1abe
00000240: 54db 043e 0227 5fbd 1eda ab3d 18b6 0abe
00000250: cf81 84be 16dc 49be a703 4dbe a7b0 4b3d
00000260: 4add afbd e50f 45bc c6d9 0f3e b9d1 433c
00000270: 1e9f 82bd 1702 213e 1e13 823e 4f65 8a3e
00000280: 6141 b63d 93dc 48bd c883 94bd 13be 4b3e
00000290: aa9a 173e 7f5f 3cbe 5beb 313e 233f 8b3e
000002a0: ef8c 273e bc45 733e 395d 51bd 9527 27be
000002b0: 501c 7e3e f94a 8b3e 5a1e 80be ce16 a73d
000002c0: 1611 653e 0668 b03d e760 5d3c e526 533e
000002d0: f685 8f3d ffa9 71be 34ec 4dbd 2f4b 2bbd
000002e0: 7c1a db3d b831 16be 708b 6b3e e39b 203e
000002f0: a53b dabd 7523 2b3e cce8 37be 3921 5a3e
00000300: 8de7 43be c194 61be 6b22 8abd 7dfb 3bbe
00000310: 5ae6 2e3b 4a60 7bbd f756 713e 06e8 02be
00000320: c631 473e 3321 943d 65d6 7dbe 6ae6 03be
00000330: b72e b83c d533 243e 7fa1 ffbd 60b4 87be
00000340: 11be 19be d247 6abd 7cb1 553e 91cb 833e
00000350: f615 673e c311 cfbd 60db 1a3e c656 14be
00000360: 6e37 82bd 069c 1abd f46e 8dbe bf1b 743d
00000370: 8aee e3bd a258 16be 6ee4 23be 673c 953d
00000380: 443e 86be 87ef 85bd dfd7 58be 406b 84bd
00000390: 2fef 13bc cca0 84be cf3a fb3d e5bf 3c3e
000003a0: 6d85 f33b 8401 68be 8936 3bbe b5f9 15be
000003b0: 6a33 4dbe 906f fb3d 53e0 3e3e 697d 5c3e
000003c0: 4a19 983d 9315 38bd ac26 343e 7707 81be
000003d0: 4b74 303e b955 1f3c c552 313e 6be3 ee3c
000003e0: 9277 b3bd 346c 39be 4cc5 53b8 ae8d dabd
000003f0: 92da 093e 06a0 693e 40b3 8dbe 661c e13c
0.2703625 0.26640424 -0.08036254 -0.17091237 0.25898096 0.12690988 0.061173398 0.26258942
-0.10084551 -0.11631082 -0.25126892 -0.23189121 0.20625967 -0.10805304 0.17192514 0.23706745
0.2457411 -0.059380293 -0.25751418 0.24930169 -0.19865915 0.0011910835 -0.020926494 0.036941912
-0.044203293 0.11220952 0.2752676 -0.14098264 -0.21771282 0.033718295 -0.16223057 -0.07408748
0.25746337 0.14933926 0.21949708 -0.18184145 0.04288695 0.21930325 -0.26143208 -0.16092731
-0.070992224 0.24294354 -0.057885192 0.037133776 -0.052644562 -0.19746874 0.06572452 0.10131896
0.13405263 -0.0959287 -0.05851968 0.21160379 0.15056707 -0.029570797 -0.01545347 0.09325734
-0.143418 -0.14654358 -0.045000095 -0.10837371 0.13515444 -0.15886623 -0.13241835 0.006389565
-0.12194221 -0.083917744 -0.07541103 -0.041921828 -0.1077983 -0.19463098 0.24171531 -0.04756171
-0.13209793 0.17738105 -0.066448145 0.20627071 -0.061270878 -0.18907668 -0.20400022 -0.18178308
0.10370215 -0.14471646 0.20474282 0.14433871 -0.25612125 0.1289299 0.22401792 -0.16440521
-0.1912528 0.10530775 0.16075353 0.15918207 0.27928156 0.22225536 0.028781187 0.12081273
0.019736253 0.19633065 0.060526885 0.21353528 0.090662435 -0.2794979 0.16947937 -0.07701204
0.10171377 0.21610054 0.20488173 -0.2546592 0.110213675 -0.0068516936 0.053554606 -0.12737162
0.27069205 -0.17647898 -0.22468705 -0.25510648 -0.21326104 0.19282939 -0.040678397 -0.014962773
0.11155259 0.25821877 0.053475954 0.13754584 0.051089942 0.07260264 -0.034716718 0.11379587
-0.1574852 0.069527976 0.087460645 -0.19793567 -0.098336175 -0.1577623 0.15908824 0.1952707
0.26266363 0.13791786 0.20851944 0.26406488 0.27662623 0.25417778 0.030551188 -0.15103339
0.12974292 -0.05448056 0.08391212 -0.13546026 -0.25880286 -0.19712862 -0.20020925 0.049729016
-0.085871294 -0.012027715 0.14047918 0.011951857 -0.063780054 0.15723453 0.2540521 0.27030417
0.08899189 -0.04903848 -0.07251698 0.19896726 0.14805093 -0.18395804 0.17374937 0.27196607
0.16362356 0.2375707 -0.051114295 -0.16323693 0.24815488 0.27205637 -0.25023156 0.081586465
0.22369799 0.08613591 0.013511873 0.20620306 0.07007973 -0.23600005 -0.05027409 -0.041819748
0.10698411 -0.14667404 0.2300241 0.15684466 -0.106559075 0.16712745 -0.17959899 0.21301736
-0.19131298 -0.22029401 -0.06744846 -0.18357654 0.0026687593 -0.061371125 0.2356833 -0.12783822
0.19452581 0.07232895 -0.24788816 -0.12880865 0.022483213 0.16035397 -0.12481975 -0.26504803
-0.15013911 -0.0571974 0.20868486 0.25741246 0.22566971 -0.1011081 0.15122747 -0.14486226
-0.063582286 -0.03774645 -0.27623713 0.059596773 -0.11129482 -0.14682248 -0.16005108 0.072869115
-0.2621938 -0.06539827 -0.21176098 -0.06465769 -0.009029194 -0.25903928 0.12267076 0.18432577
0.007431677 -0.22656828 -0.18282522 -0.14646037 -0.20039144 0.12277138 0.1864026 0.21532215
0.074266985 -0.04494245 0.17592877 -0.25201008 0.17231862 0.009725028 0.1731673 0.029161176
-0.087630406 -0.18107682 -5.0490067e-05 -0.106715545 0.13462284 0.2281495 -0.2767582 0.027479362

conv2.att_src f4 [1, 1, 64]
00000000: 1806 8a3e a2ce c23d e3c0 25be 4398 93be
00000010: e00f eebd 5cb2 753d 6ac4 843e 9614 603e
00000020: d68d 5f3e f94b 1ebe b529 1ebe 5f37 87be
00000030: d3b4 aabd 0e66 883e e4ee 6d3e bd5e 19be
00000040: 8d06 3f3e 7ebf 3a3e 9bc8 fd3d 4d5c 873e
00000050: 267e c73d 4cb3 183e e474 473c 96dd 973e
00000060: fc7b 683e cecc c83d 559f 133e d9e9 65be
00000070: 38f1 cbbd e77c babd 21d1 88be 9d41 48bd
00000080: ab14 d9bb 170d 8fbe 4259 333e 304c e53d
00000090: a870 86be b707 27be e376 953e 8694 d43d
000000a0: d63b 30be 4133 73be c9ee f5bd c390 9b3c
000000b0: 2d4f 243e ef37 91be 375c 6b3e ba35 9e3d
000000c0: 8077 453e a91f cc3c ea03 16be 9b39 87bd
000000d0: f198 d6bd 7767 7fbe e7ab 83bd bae7 6e3d
000000e0: 5c1b 683d 0fab db3d 8125 db3d 5435 9dbd
000000f0: 1e4a 4cbe 4403 8fbe b0da 523e 1983 a8bd
0.26957774 0.09512068 -0.16186862 -0.28827104 -0.11624122 0.05998455 0.25931102 0.21882853
0.2183145 -0.15458669 -0.15445597 -0.26409432 -0.08335271 0.26640362 0.23235661 -0.14977546
0.18654843 0.18237111 0.12391778 0.26437607 0.09740858 0.14912146 0.012173865 0.29661244
0.22703546 0.098046884 0.14416249 -0.22452487 -0.09958118 -0.091058545 -0.26722053 -0.0488907
-0.0066247783 -0.27939674 0.17514518 0.11196172 -0.26257825 -0.16311537 0.29192266 0.10379891
-0.17210326 -0.2375002 -0.12008435 0.018989926 0.16045828 -0.28362986 0.22984396 0.07725091
0.19283867 0.02491744 -0.1464993 -0.06602784 -0.1047839 -0.24941812 -0.06429272 0.05832646
0.056666717 0.10725986 0.10700513 -0.07676187 -0.19950148 -0.2793218 0.20591235 -0.0822813

conv2.att_dst f4 [1, 1, 64]
00000000: b3ee 893d 1c98 d1bd f5a7 70bd dc6c 713e
00000010: 7e10 80bd 2ce4 453e 8bbe f83d a68a 513e
00000020: 4dfe 1ebe 22f3 82be cb2f 04be a4a0 47be
00000030: 56e3 8bbd d9c7 d6bd a516 3e3e 0e47 9a3e
00000040: bcc9 493e 9510 863e ba1f 1c3e cdf5 183d
00000050: 0c54 153e 3d32 453d 8777 cabd 4854 32be
00000060: ebe1 c43d 5f2f c13d 555d 7c3d f82d e2bd
00000070: 4035 0fbe b8ea 553e 9e20 5b3e 3639 153e
00000080: 7747 983e ec96 7d3e d9e4 66be fdb0 9d3e
00000090: bc2d 4cbe 9586 533c de27 5bbe 52b5 bbbd
000000a0: c780 34be 530f 613d e37f 95bc 91b9 223e
000000b0: 7fba 70be 6ea3 103d 3907 3e3e b9fe 94be
000000c0: 6677 4dbe 9472 1c3e 166b 143e ed44 703e
000000d0: ff30 71be ba3e 153e 4209 2a3e 6277 11be
000000e0: 363a 873e 2dec ff3d 14f2 3f3e cd9a 8f3d
000000f0: f18d 99be f444 a43d cd5f 8cbe 4809 8c3e
0.067349814 -0.10234091 -0.058753926 0.23576683 -0.06253146 0.19325322 0.12145718 0.20463046
-0.15526696 -0.2557612 -0.12908857 -0.19494873 -0.0683047 -0.10487337 0.18563326 0.30132335
0.19705862 0.26184526 0.15246478 0.03734379 0.14582843 0.048143614 -0.09886079 -0.17414963
0.09613403 0.094328634 0.061612446 -0.11043924 -0.13985157 0.2089032 0.21399161 0.14572605
0.29742023 0.24764603 -0.22548236 0.30799094 -0.19939321 0.012910505 -0.21401927 -0.091654435
-0.1762725 0.054946255 -0.018249458 0.158911 -0.23508643 0.03531211 0.18557443 -0.29100588
-0.20065078 0.15278083 0.14493975 0.23463793 -0.23553847 0.1457471 0.16605094 -0.14205697
0.264116 0.12496219 0.18744689 0.07011948 -0.29991105 0.08020964 -0.2741684 0.2735083

conv2.bias f4 [64]
00000000: 1395 1abc 1482 313c 217a c8bb f3ac 12bc
00000010: c9f4 0fbc 0dc8 163c 6efc 343c 2853 d23a
00000020: 8a93 df3b 51c1 223c e5c9 04bc 0bde 1ebc
00000030: 4f0f 3e3c 21ae 073c 984e 18bc 46d1 babb
00000040: 1ef6 6830 fc71 4f3c 08fa 0abc bfb2 19bc
00000050: 93c4 b3bc d435 473c 6937 05bc 489f 26bc
00000060: fca0 5b3c b863 2f3c 508d 2d3c 2604 193c
00000070: 1119 01bc 742e 273c 1766 a7bb a19d 0436
00000080: dbe6 193c 5beb f43b c94f 3fbb 1232 293c
00000090: 9ae7 0b3c 054e 16bc 71e5 4abc e916 04bb
000000a0: 0000 0000 1723 1dbc d263 333c 9981 3fbb
000000b0: b33f 0b3c 3451 5c3c 96f1 2b3c 3663 debb
000000c0: fd24 1abc e1c6 17bc 4257 13bc b822 323c
000000d0: fc88 03bc 8124 d9bb 702a 003c 4ece 2f3c
000000e0: d44e 11bc 2521 ac3b 01c5 613c 39e4 dbb9
000000f0: 6a9a 393c e10b 11bc 1239 963b 3602 35bc
-0.009434956 0.010834236 -0.0061180745 -0.008952367 -0.008786389 0.009202969 0.011046512 0.0016046511
0.006823008 0.009933786 -0.008104776 -0.009696494 0.01160033 0.008281262 -0.009296082 -0.005701217
8.475086e-10 0.012661453 -0.008482464 -0.009380995 -0.02194432 0.01215883 -0.008130887 -0.010169812
0.013405081 0.010704927 0.010592774 0.009339368 -0.007879511 0.010203946 -0.0051086056 1.9761285e-06
0.009393419 0.0074743456 -0.0029191843 0.010326879 0.008539105 -0.009173875 -0.012383805 -0.0020155257
0.0 -0.009590886 0.010949092 -0.0029221533 0.008499074 0.013447095 0.01049461 -0.006786729
-0.009408233 -0.009263725 -0.008992972 0.010872535 -0.008028265 -0.006626666 0.007822618 0.010730339
-0.008868892 0.0052529746 0.01377988 -0.00041940974 0.011328319 -0.00885293 0.00458444 -0.01104789

conv2.lin.weight f4 [64, 64]
00000000: cb67 35be 7111 023e 393f 8ebd 2c46 0e3d
00000010: 06ca e53d a753 643d 07ba ab3d 0b66 313c
00000020: 5b0b f03d e74f 53be 9207 48bd 3b72 40be
00000030: ec48 c83d 4d47 15bd 04c4 0ebe 7ccd 2d3d
00000040: 3643 da3d 6c49 363d 9b81 d83d e19b ff3d
00000050: 0008 7d3c 54be 42be eb2d 7f3d 5b03 28bd
00000060: ad27 123e aac9 c93d 951c 2f3e c217 96bd
00000070: fb5c 843d 598b 4ebe 51dc 4d3e a871 c73c
00000080: f46d 02be ebda 6f3d 50fa 313e 3890 f3bc
00000090: 613d 033e 5e67 04be 80ce 133b 59eb 39bd
000000a0: 6d33 183c 7d8d 12bd 2522 053d d80c 35bd
000000b0: c1bc 243c 54fe 8abd f0a6 e6bd 3a81 983d
000000c0: ab55 08be b9ab 0c3b 715b cbbc 965c 213e
000000d0: 69fd 5c3e 807a 2e3e cc1b 3abd e179 22be
000000e0: b1e3 3e3e 3b07 17be 8d1a fb3d aaae ef3d
000000f0: 5469 90bd 312f 2b3e cbbe 293e 26a4 5ebe
00000100: 85db 103e fe2f 9bbc 97ae 30be 3a99 06be
00000110: 5af1 07bd 9bda 02bb 6052 383e 028d dfbc
00000120: 82e5 f23c 7853 ebbd 540c 50be e779 4ebd
00000130: a500 273e 2192 1bbe 586c d13c 547b 08be
00000140: a03c d6bc b9d7 2f3e ee63 cf3d 70f5 413e
00000150: 4a97 9b3d 07db 2a3e 69c2 7b3d bda1 40be
00000160: eb56 0a3e eca2 603d 0411 75bd 8259 bf3d
00000170: 2295 dc3d 2e46 9b3d 8bb8 cf3d cee9 02be
00000180: 5b1d 893d 5a9e 48be b446 b0bd e62f f13d
00000190: ea7b d03d 407a dd3b 4e83 ce3d dd8b 043e
000001a0: ee66 abbd d51d 3f3e 99e7 e1bd 2a1e e83d
000001b0: db79 0e3e 64ad f0bd b1cf 52be cfa3 0c3e
000001c0: 162b 243e ad6f 033e e0e9 96bd 9316 d93d
000001d0: cecb 1abe cf88 8cbc 1b17 023e 4ffc da3d
000001e0: c7a0 163e b196 293e 29ee 36be f4b4 b2bd
000001f0: 96f8 f0bd 0a4d d13d 8f1a 363e 3c36 aebd
00000200: 49fc 503e 92b5 f7bc 9486 8e3c 7c88 18be
00000210: f5fb 693d 81b9 dfbd 2c3e 38be 125d 66be
00000220: 49e7 813d 1759 173e 71ac 1dbd e638 3f3e
00000230: c3c6 00be 4346 363e deb4 2abe d47b 233d
00000240: e2eb de3d f277 9a3d ae81 4dbe 1daa 3e3c
00000250: 918a 053e 0039 3abe e8eb 163c 643e e43d
00000260: 0b6b 3b3e 2fb6 2d3e 744f fabd 09f9 293e
00000270: a7f5 b73d eddc 55be c039 d63d 729d aa3d
00000280: cf1b b4bd eae7 07be 66f8 1fbe 70f4 46bc
00000290: e142 5cbe 42fb 24be 8a9e d5bd cb45 62bc
000002a0: 260f 88bd 00e9 b23c c7fe 543e 1859 efbc
000002b0: c25b 1fbe 8b40 1c3e d9ea 553e 0d91 093e
000002c0: 56bd 173e 87ed 85bc fdab 43be 15e2 7dbd
000002d0: 4b9e 34be a2d5 ff3c 57a8 0b3e 7654 233d
000002e0: 3f67 c1bd b6df fabd 5c43 b83c ecc4 623d
000002f0: ac0e 58be c024 e2bb b5ce 47be 378d 3abe
00000300: 22c6 8b3d a8ad 3fbe ed06 c6bd 4333 fe3c
00000310: 0261 06be 0384 433e e40e 25be ca65 513d
00000320: 17f9 343e e463 16be 0918 93bd 959c fa3b
00000330: 6e09 513e 8f28 cd3d 0cee 7d3d 8873 cc3c
00000340: 7cd8 04be 4409 f0bd 3ad6 5abd 15d3 0fbe
00000350: 8dcd 413e 6692 8d3d a666 4d3e 96ad 2abe
00000360: b2d2 9fbd 3fa8 123e 9c80 7a3d 50ad 453c
00000370: c799 543c 1bc1 413e 535a a3bd 5c1b 243d
00000380: ed1c 52be 2160 59be 4465 42be b91e 333e
00000390: ac9c 01be de25 08be 281e 9dbc 4898 193d
000003a0: 2537 54be f424 013e 4518 1e3e 15c6 1a3e
000003b0: 15fb 1bbd a896 f0bc ef4b 4dbe ab1b 173e
000003c0: 8659 21bc c39d 3a3e 9b12 44be cbc5 873c
000003d0: e1a8 3a3e 7136 0f3c 8e8a c43d ee30 323e
000003e0: 15ee 25be 5046 06bd 71d9 d0bc da29 11be
000003f0: 40b8 6bbb 113c 4bbe 36b1 af3d b790 8dbd
-0.17715375 0.12701966 -0.069456525 0.03473489 0.112201735 0.05574384 0.08385091 0.010827552
0.11720916 -0.20635949 -0.048835345 -0.18793575 0.09779534 -0.03644495 -0.13941962 0.042432293
0.10657351 0.044503614 0.10571595 0.124809034 0.015443802 -0.19017917 0.06229965 -0.041018825
0.14272948 0.098529175 0.17100747 -0.0732875 0.06463047 -0.20170344 0.20103575 0.024346188
-0.12737256 0.058558386 0.17380643 -0.029731855 0.12816383 -0.12930056 0.0022553504 -0.04539046
0.009289605 -0.035779465 0.032503266 -0.044201702 0.010054768 -0.067867905 -0.112623096 0.07446523
-0.1331393 0.002146466 -0.024823876 0.15757975 0.21581043 0.17038918 -0.045436665 -0.15866806
0.18641545 -0.14748852 0.122609235 0.117032364 -0.0705134 0.16717221 0.16576688 -0.21742305
0.1414624 -0.018943783 -0.172541 -0.13144389 -0.033189155 -0.0019966725 0.18000174 -0.027288917
0.029650453 -0.1149053 -0.20317203 -0.050409224 0.1630884 -0.15192463 0.025564358 -0.13328296
-0.026151955 0.17172135 0.10126482 0.18941283 0.075972155 0.16685115 0.0614647 -0.18811698
0.13509719 0.054842874 -0.05983068 0.09343244 0.10770632 0.07581745 0.10142621 -0.12784502
0.06695052 -0.19591656 -0.086072356 0.11776714 0.10179885 0.006758958 0.10083638 0.12943979
-0.08369242 0.18663724 -0.11030502 0.11333878 0.13913672 -0.11751822 -0.2058704 0.13734363
0.16032061 0.1283557 -0.07368827 0.10600009 -0.15116808 -0.01715508 0.12704127 0.10692655
0.14709769 0.1656139 -0.17864288 -0.0872592 -0.11766164 0.10219772 0.17783569 -0.08506438
0.20408739 -0.030237947 0.017398156 -0.14895815 0.05712505 -0.10924054 -0.17992467 -0.22496441
0.06342942 0.14780079 -0.03849453 0.18674049 -0.12575822 0.1780024 -0.16670558 0.039913014
0.10884835 0.07542409 -0.20069 0.011637238 0.1304114 -0.18185806 0.009211518 0.111447126
0.18302552 0.16964029 -0.12222186 0.16598906 0.08982401 -0.20885058 0.10460234 0.083308116
-0.087943666 -0.13272062 -0.156221 -0.012143239 -0.21509887 -0.16111472 -0.104306296 -0.013810585
-0.06643514 0.021839619 0.20800315 -0.029217288 -0.15562347 0.15258996 0.20890369 0.13434239
0.1481832 -0.016348613 -0.19108577 -0.061983187 -0.17638509 0.031229798 0.13638435 0.03987547
-0.09443521 -0.12249701 0.022493057 0.05536358 -0.21099347 -0.0069013536 -0.19512446 -0.18217932
0.068249 -0.18718588 -0.0966929 0.031030303 -0.13122943 0.19093327 -0.16118962 0.051122464
0.17673145 -0.14686543 -0.07182319 0.0076480606 0.20413753 0.100175016 0.061994597 0.024957433
-0.12973207 -0.11720517 -0.05342696 -0.14045365 0.18926068 0.06912689 0.20058689 -0.1666778
-0.07803859 0.14321993 0.061157808 0.012065247 0.0129761165 0.1892132 -0.07976212 0.040065154
-0.20518847 -0.21228077 -0.18983942 0.17492189 -0.12657422 -0.13295695 -0.019179419 0.037498742
-0.20724161 0.12611753 0.15438946 0.15114625 -0.038081247 -0.029368713 -0.20048498 0.14756648
-0.009848004 0.18224244 -0.19147722 0.016573807 0.18228485 0.008741007 0.0959674 0.17401478
-0.16204102 -0.0327819 -0.02549431 -0.14176121 -0.0035967976 -0.19847132 0.08578722 -0.06912368

conv3.att_src f4 [1, 1, 64]
00000000: 31d0 333e c8fe 8fbe 1785 6b3e 61d0 9b3c
00000010: bde2 cf3d f964 743e 0f2c 1ebe 111b 7d3e
00000020: 4507 153e a6a2 61be 23d1 453d 723e 70be
00000030: aa5c 1fbe 3a84 083e bdb0 953e ac2d 053e
00000040: 5e0d 26be aaa0 35be e5d6 1a3e 1567 7fbe
00000050: ea29 13be be32 bc3d 5e2c f73d 444b f5bd
00000060: a4aa 033c b9db 2c3e 6d17 84be 6dde fe3d
00000070: 90a4 14bd 7673 03be 2753 69be 3b63 0ebc
00000080: 0da9 213e 08bb fabd e438 f8bd e838 1f3e
00000090: a2e3 fe3d 375e 143e b842 9a3e 9307 85be
000000a0: 8b07 69be c0a7 96be 9172 843e 106a 133b
000000b0: 43a2 21be 6b05 10be 9a75 0b3e b91a 96be
000000c0: 379f 75be c180 023e fec1 4dbc 14e3 e53d
000000d0: 1ebd 8e3e 195e debd 2a59 1a3e b602 87be
000000e0: d652 77be ceec f2bd 2d28 eb3d 24cf dabd
000000f0: 5180 68bc 9ca1 cebd c087 863e 6f8c 91bd
0.17559887 -0.2812407 0.22999988 0.019020261 0.10150669 0.23866643 -0.15446495 0.24717356
0.14553554 -0.22034702 0.04829515 -0.23461321 -0.15562692 0.1333169 0.29236403 0.13005704
-0.16216037 -0.1773707 0.15121038 -0.24941666 -0.14371458 0.09189366 0.12069009 -0.119772464
0.008036289 0.16880693 -0.25799122 0.12444768 -0.03628975 -0.12837014 -0.22785626 -0.008690651
0.15787144 -0.12242705 -0.12120226 0.15549052 0.12445761 0.14489065 0.30129027 -0.2598234
-0.22756784 -0.29424858 0.25868657 0.0022493638 -0.15784554 -0.14064567 0.1361908 -0.29317263
-0.23986517 0.12744428 -0.012558458 0.11224952 0.2787866 -0.108577915 0.15073076 -0.26369256
-0.24152693 -0.11861573 0.11482272 -0.1068404 -0.014190749 -0.10089418 0.26275444 -0.07106864

conv3.att_dst f4 [1, 1, 64]
00000000: 5d9d c83d d383 303d 4732 eebd 525c f9bd
00000010: b4f8 90bd ebd2 01be acc8 733e 2cd0 2fbe
00000020: 8eaf 7bbe 6a4b 8cbe 3e99 8e3d b378 87be
00000030: 37d4 853d 8f57 94be 4c4a 9abd ec1c 793e
00000040: 8765 843d 4d2d 413e 391b 97bd 5d7c a1bd
00000050: 7f5d ba3d 61cd 98be fe28 293e a66e 1d3e
00000060: 049d 8c3e 9287 353e 6bc6 31be c7d4 83bd
00000070: eea4 843d 3d32 2f3e 4ec2 033e 0bb2 9c3d
00000080: d481 283e 084f 3f3e 0f64 48be 0f1c 8f3e
00000090: 39c2 8f3e 5378 a33d e86a 853e 93a8 e0bd
000000a0: 121a 5a3e 96a1 e5bd 86ba 783e eb3a 893e
000000b0: fd07 11be afc0 053e 45ff 9abd 3b82 7fb8
000000c0: f455 e0bd 8585 143e 4141 7b3d 67be 323e
000000d0: ce56 393c 6871 253d 12df 1abe 5d20 02be
000000e0: 4fc6 e63d 67fa 273d 7b91 7b3c 1ad7 5e3e
000000f0: 06d0 823e 0076 713e f0d3 2c3e 44f0 4bbd
0.0979564 0.043094467 -0.116306834 -0.12175812 -0.07078686 -0.12678115 0.23807019 -0.17169255
-0.24578688 -0.27401286 0.069628224 -0.26459274 0.065346174 -0.28973052 -0.07533702 0.24327439
0.06464677 0.18864937 -0.07378239 -0.078850485 0.09099864 -0.29844192 0.16519544 0.1537424
0.27463543 0.17727497 -0.17360847 -0.064370684 0.0647677 0.17109008 0.1286709 0.076511465
0.16455775 0.18682492 -0.1956942 0.27951095 0.28077868 0.079819344 0.26058125 -0.10969653
0.21299008 -0.11212461 0.24289903 0.26802763 -0.14163204 0.13061784 -0.0756822 -6.0918024e-05
-0.10953894 0.14504059 0.061341528 0.17455445 0.0113122 0.040391356 -0.15124157 -0.12707658
0.11268293 0.041010287 0.015354509 0.21761742 0.25549334 0.2358017 0.16877723 -0.049789682

conv3.bias f4 [64]
00000000: 735e 233c a2d4 0ebc b8b3 f3bb cbc0 aebb
00000010: 0000 0000 2a81 343c e58d f1bb e033 353c
00000020: 9d29 2dbc 49be 2f3c 71cb 12bc 20b2 323c
00000030: 7438 db3b be2a 2e3c cafa 5d3c 4619 373c
00000040: a9f1 6939 6016 1cbc 2422 363c deac 1d3c
00000050: 4092 603c 48b0 633c a265 1fbc 27c7 523c
00000060: b495 dcbb 05cf fdbb 3251 dcbb 3085 f0bb
00000070: 124b 1cbc 039b 15bc ab16 06bc 2b0e 243c
00000080: 59e9 583c 6aab 2e3b ee50 07bc 03ac 223c
00000090: 4487 d53b f735 3e3c 7bd1 e4bb 5699 0cbc
000000a0: f56f 0ebc 15da 0dbc 0000 0000 a5f0 b8bb
000000b0: aee2 2d3c a5c1 683c ee9d 00bc 4544 29bc
000000c0: 0000 0000 94da 423c cfe1 643c f714 a8bb
000000d0: b2db 3f3c 5c58 873b 0a10 193c 7bc0 f1bb
000000e0: da42 353c 701a 01bc ee32 febb 01d4 283c
000000f0: 82b4 563c 8559 3d3c 1800 03bc 793d 353c
0.009971249 -0.008717688 -0.0074371956 -0.0053330413 0.0 0.011017123 -0.0073716515 0.011059731
-0.010569003 0.01072652 -0.008959637 0.010906726 0.0066900793 0.010630308 0.013548562 0.011175459
0.00022310637 -0.009526819 0.011116538 0.009623734 0.013706744 0.013897009 -0.009728821 0.012864864
-0.006731713 -0.007745626 -0.0067235464 -0.007340096 -0.0095393825 -0.009131196 -0.008184115 0.0100131435
0.013239228 0.0026652464 -0.008259041 0.009928706 0.006516369 0.011609546 -0.00698298 -0.00858148
-0.008693685 -0.008657952 0.0 -0.0056439214 0.010613127 0.014206325 -0.007850153 -0.010331218
0.0 0.011892933 0.013969853 -0.0051294523 0.011710094 0.0041304063 0.009342203 -0.007377682
0.011063302 -0.007879838 -0.007757536 0.010304452 0.01310456 0.011556988 -0.007995628 0.0110620195

conv3.lin.weight f4 [64, 64]
00000000: 3f13 1cbe 4823 823a 3d32 2d3e ce20 a2bc
00000010: 623f fabb 896e 36be d90b fb3b dd44 cabd
00000020: 0287 e13d 42ec 6dbd 6fe5 1c3e 245e 1ebe
00000030: 5962 153e 8927 253e edd7 eebd c6b6 463e
00000040: a05e 42bd d797 0fbd 9b03 08be b9e0 da3d
00000050: e33b 353e 8813 b93d 7cda 23be c708 5f3e
00000060: 9fa8 d0bd 0243 343e 1a81 eebc 8f61 babd
00000070: 14a5 01be 7d6a 3b3b 148a 073d 9297 a33d
00000080: 36c2 083e 7802 43be 77f2 3c3e 8ebc 1abc
00000090: 6ab3 3abd 9905 0dbd 68f4 bc3c 0afa 49be
000000a0: 66ac 2dbe fc33 07be a72a bd3d 5877 41be
000000b0: 99f7 3c3d aeba b43d 1e1f db3d 10ad 0abe
000000c0: 34d7 843d f351 2b3d 3e6d 42bc 080a 3ebe
000000d0: fd1b 933d 6fd8 b4bd 0ebb 1abe c98c 9e3d
000000e0: fa83 afbd c833 30bd 6bc1 013e fb75 4b3e
000000f0: b915 8fbd 8614 a8bd b1df 6c3d f3bd 033e
00000100: f717 01be c252 48be 1dd9 183b 5faf fe3d
00000110: f97e 423e 999f 2dbe 910e 15be 5e5d 07be
00000120: f6cf 2d3e d256 b9bd 3605 04bd 2ccc 043c
00000130: 5c2b 303e 4c69 2abc 0003 44bd c0db 953b
00000140: fdcd ab3b 2979 b03d 948e da3d 5066 d7bb
00000150: 8388 553d 400b ff3d b817 943c dba1 08be
00000160: 41e4 963b ce2b df3d b42b ef3d 0e6a 82bd
00000170: 6fa5 f5bb 0680 9fbd efac a0bc 44f0 3ebe
00000180: 9a0a 433e 24af bb3d e55d 983c d949 6cbd
00000190: faf7 03be 89a7 a0bc ba64 0bbe 7917 1c3e
000001a0: 8a03 f63d b022 99bd e331 af3d 81f4 5a3d
000001b0: 23d0 05be ff64 4fbd 6306 433e e1bd 133d
000001c0: 2cd2 28be 4dd7 2cbd 757c b23d 537b 0dbe
000001d0: b2a9 20bd 78b2 3f3e fc16 df3d c716 273e
000001e0: d301 263d b815 98bc d87d 943c bbca 5e3d
000001f0: e3c9 54be 9386 3d3e 4b7b 09bd 6c3a f2bd
00000200: c5ba 353e 58a1 2dbe bc34 473e 7a78 fcbc
00000210: c5dc 1b3e 1f3b be3b d7e6 543d fca8 543d
00000220: f7fc d5bc cd60 75bd 1a22 5ebe 6cec a5bd
00000230: 47a1 2abc 64ff 3a3e 5adb 17be 6eaf 313e
00000240: 3074 81bc e090 4fbe 8a24 483d 0b9a 28be
00000250: 1664 8d3d ed44 6e3d 865f 723d 7760 da3d
00000260: c22c b13b 58aa 2dbe c731 323e 8b73 a53d
00000270: 18ad adbd dd09 353d 6761 e1bd 84f6 1e3e
00000280: eaab 0cbe 4840 3fbe e8dc f03d e070 ccbd
00000290: aff0 843d 711f a63d f27b ebbb a862 363e
000002a0: 3fbd 563e e4d5 2fbe 92fd 6abd de75 ba3d
000002b0: c7a5 56be da4f 0bbe 7c8b 02ba cb7e a13c
000002c0: 6bf9 d4bd 73e1 433e 5553 d9bd 544c b63c
000002d0: 46d9 273e fdfb 363e e91f 493e 9b9f 35bd
000002e0: 4b88 313e 8b6e 083b fe2f 29bd 1be4 c03d
000002f0: 4f54 213e a196 61bd b1ec 193e ea14 453e
00000300: a53d 733d 1b53 bbbd db75 ab3b 9484 9a3d
00000310: dda1 72bd 4d61 52be 4588 bd3c e7f6 c53b
00000320: f755 00be 9789 083c 8797 94bd 9ed7 05bd
00000330: 2f23 33be a8cb 86bc 9614 d2bb 921f fdbc
00000340: 89b2 1b3e cdd5 1b3e e9f7 523e 69eb de3d
00000350: 3cf5 1ebe c576 523d d619 d83c db3f 583e
00000360: fdd9 47be 7bc4 3d3e 9d25 3fbe 035c 80bd
00000370: 4639 423e 183c 21be 58a6 05be 176f 8abb
00000380: b22d 1bbe 9e30 953d 9d72 ca3d cb42 34be
00000390: c3fd 27bd d336 0abe f8ff 4cbd 7c48 df3c
000003a0: 4c55 5bbd b891 25bd ac98 0d3e 8bf6 08be
000003b0: b905 663d 7448 c1bd 0428 32be 8508 b7bd
000003c0: bdf2 2d3e e1e3 2abe cd6c 1cbd 6cd6 07be
000003d0: 32e7 d0bd fa55 6c3d df4f d7bd 925f 78bd
000003e0: 84b0 ac3d cf0d 40be 720b e8bb fdaf 03bd
000003f0: e46b a3bd 241f 373e 7adb 55be e775 7cbd
-0.15241717 0.0009928728 0.16913696 -0.019791033 -0.0076369504 -0.17815603 0.0076613245 -0.09876416
0.11012079 -0.05808664 0.15321897 -0.154656 0.14588298 0.16128363 -0.11662278 0.1940566
-0.047453523 -0.035056915 -0.13282625 0.10687394 0.17698626 0.090369284 -0.16001314 0.21780692
-0.10188412 0.17603686 -0.029114295 -0.09100639 -0.12660629 0.0028597408 0.033090666 0.07987894
0.13355336 -0.1904391 0.18451868 -0.009444369 -0.04558126 -0.034429166 0.02306576 -0.19724289
-0.16960296 -0.13203424 0.09236651 -0.18893182 0.046134565 0.08824669 0.106992945 -0.1354258
0.06486359 0.0418262 -0.011866866 -0.18558514 0.07183073 -0.08830344 -0.15110418 0.077416964
-0.085700944 -0.043018132 0.1267144 0.19869225 -0.06986565 -0.082070395 0.057830516 0.12865429
-0.12606798 -0.1956282 0.002332277 0.12435793 0.18993749 -0.16955413 -0.14556338 -0.1321921
0.16973862 -0.09049763 -0.032231532 0.008105319 0.1720404 -0.010401081 -0.047854424 0.0045733154
0.0052430616 0.086168595 0.10671726 -0.006573476 0.05213214 0.12453318 0.018077716 -0.13342993
0.0046048467 0.10897027 0.116782576 -0.063678846 -0.007496528 -0.077880904 -0.019613711 -0.18646342
0.19047013 0.09164265 0.01859946 -0.057687614 -0.12887564 -0.019611137 -0.13612643 0.15243329
0.12012394 -0.07477319 0.08554437 0.053455833 -0.13067679 -0.050633427 0.19045405 0.036069755
-0.16486424 -0.042197514 0.087151445 -0.13816576 -0.039224334 0.18720424 0.10893056 0.16317283
0.040529083 -0.018565044 0.018126413 0.054392558 -0.20780139 0.18508367 -0.033564847 -0.11827549
0.17747028 -0.16956079 0.1945371 -0.030819166 0.15220936 0.0058053876 0.05197796 0.05191897
-0.0261216 -0.05990677 -0.21692696 -0.081017345 -0.010414428 0.18261486 -0.1482977 0.17352077
-0.015802473 -0.20270109 0.04886297 -0.16465013 0.069038555 0.0581712 0.05917313 0.106629305
0.005406947 -0.16959512 0.17401801 0.08078679 -0.08480281 0.04419886 -0.11004906 0.15523726
-0.13737455 -0.18676865 0.117608845 -0.09982467 0.06491219 0.08111466 -0.0071864063 0.17811072
0.20970629 -0.17171437 -0.05737073 0.09104513 -0.20961677 -0.1360468 -0.0004979891 0.01971378
-0.10399135 0.19128971 -0.106115974 0.022253193 0.16391477 0.17869563 0.19641079 -0.044341665
0.17337148 0.0020817842 -0.041305535 0.09418508 0.15754817 -0.05507529 0.15031697 0.1924626
0.05938496 -0.091467105 0.0052325553 0.075448185 -0.059236396 -0.2054493 0.023136267 0.006041396
-0.12532793 0.008333585 -0.07255464 -0.03267633 -0.1749389 -0.016454533 -0.0064111454 -0.030898843
0.15204825 0.15218277 0.20602383 0.10884745 -0.15523237 0.0513828 0.026379507 0.21118109
-0.1951675 0.18531983 -0.18666692 -0.0626755 0.1896716 -0.1574558 -0.13051736 -0.0042246687
-0.1515415 0.072846636 0.09885142 -0.17603604 -0.04101349 -0.13497476 -0.0500488 0.027256243
-0.053548142 -0.04042217 0.13827771 -0.13375299 0.0561578 -0.094376475 -0.17398077 -0.08937172
0.16987129 -0.16688491 -0.038189698 -0.13265389 -0.10200347 0.05769918 -0.10513281 -0.060638018
0.08432105 -0.18755268 -0.0070814425 -0.032150257 -0.07979563 0.17882973 -0.20884505 -0.061635878

node_predictor.0.weight f4 [64, 64]
00000000: 4858 6f3d 965d b53d fc61 ebbd 0226 9f3d
00000010: e803 503d b215 a7bd f4b8 39bd 18b8 26bd
00000020: 40c1 a63c 64e6 243d 683b 4d3d d890 4cbd
00000030: 6645 c83d d2c2 b53d 28ad b9bc 401d a43b
00000040: 78c3 1a3d 34ab d8bd a0ef 3e3c c03a 95bd
00000050: 105b 253d 204a 283d f457 6a3d 54ca f53d
00000060: a01e 413d b610 85bd 1a2c f23d a039 25bd
00000070: 4016 683c 0029 b63a 602b 11bd 1c83 273d
00000080: 608a 723c 683a 753d 38dd b4bc c84c ccbd
00000090: 2c3b 9e3d b603 f03d 7800 373d f017 f5bc
000000a0: b00b 5a3c b07a d53d c8fa dcbd 406e 7f3d
000000b0: e018 53bc b416 e63d 7851 883d 8023 15bd
000000c0: 322a d5bd b487 533d 4046 2cbd 805e 2b3c
000000d0: a26c f2bd ce07 d0bd 5ed9 eabd 1830 fcbd
000000e0: 1c4a ef3d 84f3 6a3d 0424 5c3d 3c3d 38bd
000000f0: a0ba 9fbb 98b3 bf3d aa10 8d3d 7856 eebd
00000100: e084 f9bb f027 97bd b2ad cdbd c04e 283b
00000110: b0df 30bd a8eb 5fbd 70af 013c 6a67 91bd
00000120: 8064 cfbd a23b ea3d 786d b7bc d42f c73d
00000130: f0fe c0bd 88c5 083d 406b 5abc b4f3 b0bd
00000140: 246f febd 5cdf 743d 80a6 1a3c 0cec 88bd
00000150: f455 c3bd 0456 ff3d b04c d53c 7010 303c
00000160: 1400 323d 4e47 e4bd 3c1a e5bd ae6f e43d
00000170: 1cd7 543d d05c 983d 2c9c 9abd c245 b13d
00000180: 38e9 9ebd 940f d03d 72ce a0bd c801 d53c
00000190: 5c7f b43d 94db 15bd 08ee d13d b06b 0cbd
000001a0: b017 b43d ec29 513d d098 583c 8805 623d
000001b0: 62bf 993d c017 273c 7c2f 8a3d ea1a 843d
000001c0: 483a 463d e441 bebd c01a 0fbb 8070 ad3c
000001d0: b88e d5bc 140f 32bd 5293 9d3d 262e e5bd
000001e0: beca c5bd 0024 4d3c dca3 e93d bc83 04bd
000001f0: d4b1 7cbd d8ac c83d b404 b53d 609c 17bd
00000200: 7455 abbd 3023 93bd a029 cbbd cc36 683d
00000210: 6ce9 e23d debc df3d 2a98 bebd 900f a83d
00000220: a0a9 1cbc a046 143c 7228 84bd 8441 ff3d
00000230: ea99 cbbd 4cb0 13bd 8428 38bd 7a7d b2bd
00000240: 9023 b13d d424 40bd 0ed2 c23d 848a 81bd
00000250: 2c29 7e3d 604c 5dbc e8a0 debd 9816 3f3d
00000260: 7263 c33d bc75 e6bd c891 063d 965c f5bd
00000270: f04f 17bc ec16 7d3d 30b7 84bd 7807 a6bc
00000280: 8af9 f2bd f013 003c be4e 9dbd 28ad a83c
00000290: 00fe 813b b079 d9bc 8428 17bd 0825 ee3d
000002a0: 0295 a2bd da09 b9bd 5476 fabd 2cf3 663d
000002b0: da2b adbd 16f6 d3bd e0b8 abbd ae63 d3bd
000002c0: 5402 58bd 1aa9 d23d 26f7 f7bd 28a9 503d
000002d0: 0029 fd3c c218 c43d b086 bd3c a0ec 353d
000002e0: 0080 043d de99 a9bd d6a8 f9bd 60c3 bcbb
000002f0: 4cbd 1e3d 0000 ff3c 7281 cf3d d27d cbbd
00000300: 40ee 99bb 50ec 9dbc c0bb 3c3c 0451 30bd
00000310: 5061 c93d 4c53 603d 5ce2 a73d 20e2 1c3c
00000320: c431 e4bd aac9 ffbd 280f dbbc cecb ef3d
00000330: 803d f4ba ca16 dfbd 38b5 b33d 28f2 cfbc
00000340: c094 e73d 8841 8bbd d8a2 a03c 9a3f e4bd
00000350: 0c1c 19bd d4d3 773d 7825 853c 6c1f 713d
00000360: 5ca1 ba3d 4c8c 60bd 2ea3 d1bd 1824 c1bd
00000370: 9c5f b4bd 189c 5a3d 80d7 d73b 18a0 f53c
00000380: 0019 07bd 46ab f0bd 8095 27bd c66d 9fbd
00000390: 0839 9e3c 2045 e53b f0c3 883c 609d c53b
000003a0: b264 f5bd a4f3 ddbd c2f7 edbd 080d c4bd
000003b0: 6054 fe3b 425e 8cbd 1692 dc3d 541c cb3d
000003c0: 4009 50bb d860 42bd 60c2 23bc 806e f1bc
000003d0: c2c2 ef3d 40de ecbd 60ea 54bd 0cb6 96bd
000003e0: ec78 d63d 1c4b ba3d 40ab 57bd ac81 8cbd
000003f0: b888 073d 38b7 9dbc 8ccf 913d 1c92 623d
0.0584338 0.08855741 -0.114932984 0.07770921 0.050784975 -0.08158435 -0.0453424 -0.04070291
0.02035582 0.04025878 0.050105482 -0.04994282 0.09778862 0.0887505 -0.022665575 0.0050083697
0.03778407 -0.105795294 0.011653811 -0.07286596 0.040370047 0.041086316 0.057212785 0.12001482
0.047148347 -0.06497328 0.11824818 -0.04033816 0.014165461 0.0013897717 -0.035441756 0.04089652
0.014803499 0.059870154 -0.022078142 -0.09975582 0.0772613 0.11719458 0.04467818 -0.02991864
0.013308451 0.104237914 -0.1079002 0.062361002 -0.012884349 0.11234799 0.06656164 -0.03641081
-0.10408439 0.05164309 -0.042059183 0.010459542 -0.11837126 -0.101577386 -0.11467241 -0.12313861
0.11684057 0.05736114 0.053745285 -0.044980273 -0.0048745424 0.09360427 0.06887944 -0.11637586
-0.007614717 -0.07380664 -0.100428954 0.0025681704 -0.043182075 -0.0546681 0.007915363 -0.07099803
-0.10126591 0.11437155 -0.022391066 0.09725919 -0.094236255 0.033391505 -0.013331234 -0.08640233
-0.12423542 0.059783325 0.009439111 -0.06685647 -0.09537879 0.12467578 0.026037544 0.0107461065
0.043457106 -0.11146413 -0.111866444 0.11154114 0.051962957 0.074395776 -0.07549319 0.08655883
-0.07759327 0.10159221 -0.07851876 0.026001826 0.088133544 -0.03658636 0.10250479 -0.034282386
0.087935805 0.05106537 0.013220027 0.055181056 0.075072065 0.010198534 0.06747338 0.06450446
0.048395425 -0.092899114 -0.0021836013 0.021171808 -0.02606903 -0.04347141 0.07694115 -0.11190443
-0.09657811 0.01252079 0.11408207 -0.032352194 -0.061693028 0.09798592 0.08838788 -0.037014365
-0.08365908 -0.07184446 -0.09920049 0.056692883 0.11079678 0.109246954 -0.09306367 0.08206093
-0.009561926 0.009050041 -0.06453027 0.12463668 -0.09941466 -0.0360568 -0.044960514 -0.08715339
0.08649361 -0.046910122 0.09512721 -0.06325248 0.062050983 -0.013506979 -0.10870534 0.046652406
0.09540452 -0.11252925 0.03285387 -0.1198055 -0.009235367 0.061789438 -0.06480253 -0.020267233
-0.11864002 0.0078172535 -0.076810345 0.02059038 0.0039670467 -0.026547283 -0.036903873 0.11628157
-0.07938577 -0.09035082 -0.122296005 0.05638425 -0.0845563 -0.103496715 -0.083848715 -0.10321747
-0.052736595 0.1028616 -0.12107687 0.05094257 0.03090334 0.09575035 0.023135513 0.044415116
0.032348633 -0.08281301 -0.12190406 -0.005760595 0.038754746 0.03112793 0.101321116 -0.09936108
-0.004697591 -0.019277722 0.011519372 -0.043046013 0.09833014 0.054766938 0.081974715 0.009575397
-0.111423045 -0.12489636 -0.026740626 0.117087945 -0.0018634051 -0.108930185 0.08774799 -0.025384024
0.11307669 -0.067996085 0.0196089 -0.111449435 -0.037380263 0.06050475 0.016253218 0.058867857
0.09112808 -0.054821298 -0.10236202 -0.094307125 -0.088072985 0.05337152 0.006586969 0.029983565
-0.032982826 -0.11751418 -0.04091406 -0.077846095 0.019314304 0.0069967657 0.016694993 0.0060307235
-0.11982097 -0.108374864 -0.11619522 -0.09572798 0.007761523 -0.06853916 0.10770051 0.099175125
-0.0031743795 -0.04745564 -0.009995073 -0.029471636 0.11707069 -0.11565828 -0.05198133 -0.073589414
0.10472283 0.09096357 -0.05265355 -0.068606704 0.03308937 -0.019252405 0.071196645 0.055315122

node_predictor.0.bias f4 [64]
00000000: 1686 963d e0af f93d bc03 c13d e297 9ebd
00000010: c43e b1bd d0b3 b1bc b8df e8bd e609 b9bd
00000020: 4856 bb3d 9c62 0d3d 70a9 dabd d44f 433d
00000030: c0d5 62bb 4e39 89bd 86f9 cb3d 880b 993d
00000040: 9008 06bd 00b8 f338 848d 253d 6e0d 953d
00000050: 5e3a ddbd 204b edbc 80cd 83bd 5e98 b03d
00000060: c0d9 b2bc 9e53 f9bd 1085 f3bc a424 593d
00000070: 6a0e f03d 2c05 96bd 547f 1fbd f07e af3c
00000080: ae50 e13d a894 573d 6262 94bd 364f dcbd
00000090: 60e4 523c dc4e c83d ca1c ba3d 9036 d53d
000000a0: d802 e8bc 0cc9 793d 2682 f43d 1670 ffbd
000000b0: 3e42 ec3d 7239 d7bd 68ac b23c 3e23 bfbd
000000c0: 2cb4 acbd d023 1a3d 06d8 a2bd c04c 7d3d
000000d0: a0a5 f1bd 9459 d63d 3020 cfbc fac9 88bd
000000e0: c8c3 2abd 8898 ee3c 9a10 f43d 3088 ebbd
000000f0: 505d bfbd 9ae4 d7bd 406b 8abc 409e 5c3b
0.073497936 0.121917486 0.094245404 -0.07743813 -0.0865455 -0.021692187 -0.11370796 -0.09035091
0.09147316 0.03451787 -0.10676849 0.047683552 -0.0034612268 -0.06700383 0.09959702 0.074729025
-0.03272301 0.000116214156 0.040418163 0.07277952 -0.10802148 -0.028966486 -0.064356804 0.08622812
-0.021832347 -0.12174152 -0.029726535 0.05301346 0.11721499 -0.07325205 -0.03893979 0.021422833
0.110017166 0.052632004 -0.072453275 -0.10757296 0.012871832 0.09780666 0.09087522 0.104107976
-0.028321669 0.06098275 0.11938886 -0.124725506 0.11536072 -0.10509004 0.021810725 -0.09332894
-0.084328026 0.03763181 -0.079513595 0.061840773 -0.117991686 0.104663044 -0.025283903 -0.06679149
-0.041690618 0.029125467 0.11917229 -0.11500585 -0.0934397 -0.10541649 -0.016896844 0.003366366

node_predictor.2.weight f4 [13, 64]
00000000: 6c57 cc3d 227a a9bd f6d5 f03d f856 e4bc
00000010: a065 6bbc fe77 c8bd 305a 8ebc 2698 d2bd
00000020: c007 58bc 58e8 a63c 1afc 9ebd 22f5 ff3d
00000030: 3487 433d a4f1 39bd a08e b8bc e01b da3b
00000040: 14e7 723d 2c50 32bd ccff 403d c4d8 cdbd
00000050: 98a9 37bd 4219 e93d ec12 f63d f073 80bd
00000060: 2059 403d 0095 80bc d44f 41bd 5c5f cebd
00000070: 1034 58bd 4c27 833d d407 653d 5850 953c
00000080: 4ae3 edbd 86ac bcbd 4406 c93d 88b2 da3d
00000090: fa10 dbbd 7c32 9f3d 1efb a9bd 6c68 bb3d
000000a0: 7213 ab3d 58d2 df3d d031 eb3c f473 493d
000000b0: e49c 44bd 7284 d1bd ac8c d7bd 8a79 813d
000000c0: 0c4d cebd 80e0 dcbc 7069 923d c03f 4e3b
000000d0: a052 14bd 003f a23c fc73 203d 3829 84bc
000000e0: 8851 8b3d 587d fbbd 80ac d4bd d43e 243d
000000f0: 6408 1dbd d484 3dbd 0af3 f2bd 3847 2d3d
00000100: 2441 2f3d e488 79bd a021 993b a66c b53d
00000110: 8606 81bd d46d f7bd 602a 7e3c b813 1c3d
00000120: 68ef 42bd 10ec 7d3c ca20 8c3d b4d9 453d
00000130: 1629 b23d d04c 9b3c 6495 513d 44ea 77bd
00000140: 8045 f83a 1889 b13c 8c99 743d 9875 6abd
00000150: 203b 4e3d 44ee 973d 4e9f d8bd 205b 57bc
00000160: 3851 cd3d 1480 043d 4e4f e73d 785a cebc
00000170: 5097 0cbd a071 a73c 9623 a43d cce0 ecbd
00000180: b8dd 3b3d f05e db3d bc3d 6dbd e679 b13d
00000190: 9805 6abd 1a74 e73d d8de 89bc 5874 a6bc
000001a0: 407c b6bd 3c15 0a3d 92b3 8abd d84d ac3d
000001b0: 6857 633d 80df 91bc dacc a9bd 2ef5 ec3d
000001c0: 649d 133d e6c8 edbd 2a5c b6bd 9ef0 ed3d
000001d0: 502a 73bc 2a6f dc3d 880d 8ebc f2ed c9bd
000001e0: 0010 fa3a a003 033c 3880 cdbd 82d7 e43d
000001f0: 5036 4bbc 0425 4b3d f8c3 0cbd 7cb4 de3d
00000200: 52a0 f7bd 94f7 743d 004d 7a3a 20e8 99bd
00000210: 069a 95bd dc92 493d 72b1 cdbd b073 b83c
00000220: d8c4 4dbd bc80 483d 003c 7a3a 1ce7 55bd
00000230: f0ce e7bd b0b1 913c 069d b73d 8a09 8e3d
00000240: a04f eabd 0035 493c 78c1 b53c 2671 fd3d
00000250: 1840 813d 0425 0bbd ec4d 31bd 10ab f7bc
00000260: fc7c 4a3d 1689 9dbd fc15 65bd 3a5c ce3d
00000270: b62f c23d b8ab 923c 3427 47bd c494 acbd
00000280: 1e98 8ebd e0b9 9c3d 0c66 04bd 64ab bbbd
00000290: 081b a8bc 34f8 1a3d bc6a 28bd 9ae1 bdbd
000002a0: 0457 903d 7a55 8ebd 5887 dcbc 2081 ab3b
000002b0: a08b 1fbd fcce 113d a808 96bd 4ae7 8ebd
000002c0: 0098 93bb a017 3abc 00e5 873b c8c9 1a3d
000002d0: 1459 14bd 6043 2dbc 38ed ffbd 2a1f afbd
000002e0: 94e5 e33d de5d c4bd 123f 893d 545d adbd
000002f0: 2083 27bc ac2c 91bd b0ed a03c e807 09bd
00000300: 120b d03d 08b7 febc b097 b7bc 26db fa3d
00000310: e067 db3d c23e abbd 20b1 d13d 70c8 773d
00000320: 8081 edbc 301d f93d 0cb7 35bd 4a84 f73d
00000330: 066b 813d 34c9 7f3d ec33 cabd 80e6 e43c
00000340: 3cb7 d8bd 5e29 913d e8a1 d4bd 7879 9d3c
00000350: 042f 4c3d a46f 78bd de2c ef3d e0ff 213d
00000360: 6066 70bc 2a49 99bd 10d1 1dbc 3069 073d
00000370: 2e03 e33d 48e3 c6bd d877 24bd e8d5 413d
00000380: d4d2 35bd b0cf 293d ca38 dfbd ec6f 5a3d
00000390: 7019 15bc 9c11 443d 8869 59bd 58b8 2d3d
000003a0: b84b 54bd 125b e7bd 90ac fc3d 081f fbbc
000003b0: f831 7cbd 9e5e a63d 8a73 bd3d 5c82 703d
000003c0: 4a72 ad3d aae8 bbbd 50c4 95bc 2c50 573d
000003d0: 40f6 923c f03f 7ebd e687 a8bd e22e eebd
000003e0: 787b d83d c83e c7bd 5857 ac3c b0ab 143d
000003f0: 4493 3d3d 0032 c13c 24dc 833d a033 babd
0.09977612 -0.08275248 0.1175956 -0.027873501 -0.014367491 -0.09788512 -0.01737699 -0.10282926
-0.0131854415 0.020374462 -0.07762928 0.12497927 0.04773636 -0.045396462 -0.022528946 0.006656155
0.059302405 -0.04353349 0.047118947 -0.100511104 -0.04483947 0.11381771 0.12015328 -0.06272113
0.046959996 -0.015696049 -0.04719527 -0.10076782 -0.052784026 0.0640398 0.05591567 0.018226787
-0.116156176 -0.09212594 0.09815648 0.106785834 -0.106965974 0.07773301 -0.0829985 0.09150776
0.08353318 0.10928792 0.028710276 0.049182847 -0.048001185 -0.1023034 -0.10524878 0.0632201
-0.10073289 -0.026962519 0.07149017 0.0031471103 -0.03621161 0.019805431 0.03917311 -0.016132936
0.0680266 -0.12279767 -0.10384464 0.04009898 -0.03833808 -0.046269253 -0.11862762 0.042304248
0.042786732 -0.060921565 0.004673198 0.08858614 -0.06300072 -0.12081495 0.015513033 0.038104743
-0.047591597 0.015498176 0.068421915 0.04830332 0.08699243 0.018957525 0.05116786 -0.060526147
0.0018941611 0.021671817 0.059716746 -0.057241052 0.050349355 0.074184924 -0.1057726 -0.0131442845
0.10025257 0.032348707 0.11294423 -0.025189623 -0.03432399 0.020439923 0.080146 -0.11566314
0.045865744 0.10711467 -0.057920203 0.086658284 -0.05713424 0.113014415 -0.016829893 -0.020319149
-0.089104176 0.033711657 -0.067725316 0.08413285 0.05550328 -0.017806768 -0.082910255 0.11570202
0.03603877 -0.11610584 -0.08904298 0.1161816 -0.014841631 0.1076339 -0.017340437 -0.098598376
0.0019078255 0.00799647 -0.100342214 0.11173917 -0.012403086 0.049595848 -0.034366578 0.108742684
-0.120911255 0.05980642 0.0009548217 -0.075149775 -0.07304768 0.04921232 -0.10043611 0.022516102
-0.050236553 0.048950896 0.0009545684 -0.052222356 -0.11318767 0.017784923 0.08965497 0.06935413
-0.114409685 0.012280703 0.02218698 0.12375097 0.06311053 -0.033970848 -0.043287203 -0.030232936
0.0494356 -0.07692163 -0.05592917 0.100761846 0.094817564 0.017904148 -0.04862137 -0.08426812
-0.06962608 0.0765264 -0.032323882 -0.091635495 -0.020520702 0.03783436 -0.041117415 -0.09271546
0.07047847 -0.06949897 -0.026920006 0.0052338988 -0.038951516 0.035597786 -0.0732587 -0.06977709
-0.004504204 -0.011358172 0.004147172 0.03779009 -0.036217764 -0.0105751455 -0.12496418 -0.08550866
0.11127773 -0.09588216 0.06701483 -0.084650666 -0.010224134 -0.070885986 0.019644588 -0.033454806
0.101583615 -0.031093135 -0.022411197 0.122488305 0.10713172 -0.083615795 0.10238862 0.060493886
-0.028992414 0.1216377 -0.04436402 0.12085779 0.06319241 0.06244774 -0.098731846 0.027941942
-0.10581824 0.07087968 -0.10382444 0.01922296 0.049849525 -0.060653344 0.116784796 0.039550662
-0.014672846 -0.07484658 -0.009632364 0.0330593 0.11084591 -0.09711319 -0.040153354 0.047323138
-0.044390514 0.04145783 -0.108995035 0.053329393 -0.009100303 0.047868356 -0.053079158 0.042412132
-0.051830024 -0.11296667 0.12337601 -0.030654445 -0.06157109 0.081235155 0.09250553 0.05871807
0.084690645 -0.091752365 -0.018282086 0.052566692 0.017939687 -0.062072694 -0.082290456 -0.11630036
0.10570425 -0.097287714 0.021037742 0.036296546 0.04628302 0.023583412 0.06438473 -0.09091878

node_predictor.2.bias f4 [13]
00000000: 0600 9abd 6cc0 743d ee74 8abd 0868 dd3d
00000010: 2ad2 adbd 4ac7 df3d d4a6 0fbd 4a2d b43d
00000020: 909a ad3d a8d6 743d 489f 85bd c037 e1bd
00000030: 6041 eebc
-0.07519536 0.05975382 -0.06760584 0.10810858 -0.08487351 0.10926683 -0.03507121 0.08797701
0.08476746 0.059775025 -0.06524521 -0.109969616 -0.029083908
