Graph/graph_generator_model.pth (torch, 98858 bytes, 19 tensors)

conv1.att_src f4 [1, 1, 64]
0	0x3d092ff2	0.03349299
1	0xbe4e1074	-0.20123464
2	0xbe6f5ee4	-0.23376042
3	0xbd9efc83	-0.077630065
4	0x3e87a436	0.2649247
5	0x3d59a175	0.053132493
6	0xbe9b2bb6	-0.30306786
7	0xbe8c00e8	-0.2734444
8	0x3e215826	0.15756282
9	0x3c5f5e2e	0.013633294
10	0x3d2c05a4	0.041997567
11	0xbe41bb23	-0.18919043
12	0xbe14e994	-0.14542228
13	0x3e8d0fa7	0.27551004
14	0xbe0951b8	-0.1341008
15	0xbd4afd66	-0.049558066
16	0x3e53d759	0.20687617
17	0xbd0dba17	-0.034601297
18	0xbe8d8ae0	-0.27645016
19	0xbe5810b2	-0.21100119
20	0x3dd6072f	0.10450589
21	0xbe542d35	-0.2072037
22	0xbcbd20d8	-0.02308695
23	0x3d34f210	0.04417616
24	0x3d76d586	0.060262226
25	0x3e624d47	0.22099791
26	0xbe50bdfd	-0.20384975
27	0xbc9f5e0a	-0.019454021
28	0xbd83b44a	-0.06430872
29	0x3e178ce4	0.1479984
30	0xbe9c73e2	-0.30557162
31	0xbd1c4946	-0.038155816
32	0x3c28cde7	0.010302997
33	0x3e2c4b36	0.16825566
34	0x3de651d9	0.1124608
35	0xbe0facc5	-0.1403075
36	0xbe5036e2	-0.20333436
37	0xbe123a20	-0.14279985
38	0xbdc8d232	-0.098057166
39	0x3e192a40	0.14957523
40	0x3dc01612	0.093792096
41	0x3e1ac406	0.1511384
42	0x3e2bce87	0.16778003
43	0xbe9050e9	-0.2818673
44	0xbe62e12d	-0.2215621
45	0x3e1922fe	0.14954755
46	0x3e8d8276	0.27638596
47	0x3cfc5470	0.030801982
48	0xbde72332	-0.1128601
49	0xbe5926bc	-0.21206182
50	0x3d8f8df6	0.07009499
51	0xbd83863d	-0.06422088
52	0xbe483472	-0.19551256
53	0x3e3be434	0.18348771
54	0xbe99a9e8	-0.3001244
55	0x3e8829a5	0.26594272
56	0xbd79eb1d	-0.061015237
57	0xbe85c486	-0.26126498
58	0x3cdc01ae	0.02685627
59	0x3e5af822	0.21383718
60	0xbde15cc6	-0.11004023
61	0x3e4a44fe	0.19752881
62	0x3e0f62f8	0.14002597
63	0xbd83f2d3	-0.064427994

conv1.att_dst f4 [1, 1, 64]
0	0xbe15d897	-0.14633404
1	0x3e28ab25	0.16471536
2	0xbcc6a77a	-0.02424978
3	0xbd949da4	-0.0725663
4	0xbd5befea	-0.053695597
5	0x3e70b98e	0.23508283
6	0xbd98b729	-0.0745681
7	0xbe8fbf47	-0.2807562
8	0xbd468233	-0.04846401
9	0xbd8ace47	-0.067776255
10	0x3d2c1ae0	0.042017817
11	0xbdaf673d	-0.08564613
12	0xbe0fa7b4	-0.14028817
13	0x3e2bf0af	0.16791032
14	0x3df67a55	0.12035052
15	0xbe8e4e5a	-0.27794152
16	0xbca8612a	-0.020554144
17	0x3e946a34	0.28987277
18	0x3d2c4da9	0.04206625
19	0xbe2ff69e	-0.1718392
20	0xbb0b1442	-0.0021221791
21	0x3da89af3	0.08232679
22	0xbe92f02f	-0.2869887
23	0xbdee99e8	-0.11650449
24	0x3b6ccd8f	0.0036133265
25	0x3c7f6c8f	0.015589847
26	0xbdbe3cfd	-0.09288976
27	0x3e87a3c4	0.2649213
28	0x3c2fcd78	0.01073014
29	0xbd8747ec	-0.06605515
30	0x3cbcf528	0.023066118
31	0xbe929035	-0.28625646
32	0xbe66a222	-0.22522786
33	0xbe5d7474	-0.21626455
34	0x3da6ff21	0.08154131
35	0xbe12de55	-0.14342625
36	0x3a88b4d2	0.0010429865
37	0xbe2981e8	-0.16553462
38	0xbd5db5c1	-0.054128412
39	0x3e2b2adc	0.16715568
40	0xbe58e3f6	-0.2118071
41	0x3deb82dd	0.114995696
42	0xbe987f40	-0.29784584
43	0xbe96f50c	-0.2948383
44	0x3ce075e5	0.027399966
45	0x3e924cd5	0.28574243
46	0x3e54e3f7	0.20790087
47	0xbcb52eaf	-0.022116987
48	0xbe7f3b24	-0.24924904
49	0xbe4a4384	-0.19752318
50	0x3cfbac58	0.030721828
51	0xbd772a8f	-0.06034332
52	0x3e76d465	0.2410446
53	0x3e814f27	0.252557
54	0x3e6382b8	0.22217834
55	0xbe47c997	-0.19510494
56	0xbe7988dc	-0.24368614
57	0x3e1fe041	0.1561289
58	0x3ddf9bf1	0.10918415
59	0xbca8ac85	-0.020590076
60	0x3e97d69f	0.2965593
61	0xbd82b6c1	-0.06382514
62	0x3e3102df	0.17286251
63	0x3e42c6a6	0.19021091

conv1.bias f4 [64]
0	0x3c58265b	0.013192738
1	0x3c750e68	0.014957048
2	0x00000000	0.0
3	0x00000000	0.0
4	0x00000000	0.0
5	0xbc2a2b9e	-0.010386376
6	0x00000000	0.0
7	0x00000000	0.0
8	0xbaa79fdc	-0.0012788731
9	0xbc394edb	-0.0113103045
10	0x00000000	0.0
11	0xbc658c96	-0.014010569
12	0x00000000	0.0
13	0xbc26d1db	-0.010181869
14	0x00000000	0.0
15	0x00000000	0.0
16	0xbb0342dd	-0.0020028867
17	0x3c8d2eae	0.017234173
18	0x00000000	0.0
19	0xbc5694ee	-0.013097031
20	0xbb43ffb7	-0.0029907057
21	0x3c823b37	0.015897376
22	0x00000000	0.0
23	0x3c833f19	0.016021298
24	0xbbc6a056	-0.006061594
25	0x3c24c4ef	0.010056718
26	0x00000000	0.0
27	0x3c2f3e15	0.010695954
28	0xbaf2e939	-0.001853264
29	0x3c237e81	0.009978891
30	0x3d4be165	0.0497755
31	0x00000000	0.0
32	0x00000000	0.0
33	0x00000000	0.0
34	0x3c751530	0.014958665
35	0x00000000	0.0
36	0x00000000	0.0
37	0xbc8cf4da	-0.017206598
38	0x00000000	0.0
39	0x00000000	0.0
40	0x3c889948	0.016674653
41	0x00000000	0.0
42	0x00000000	0.0
43	0x00000000	0.0
44	0xbc6490ff	-0.013950585
45	0x00000000	0.0
46	0xbbd1e99c	-0.0064060222
47	0x3c778d77	0.015109411
48	0x00000000	0.0
49	0x3c5b2837	0.013376287
50	0x00000000	0.0
51	0x00000000	0.0
52	0x00000000	0.0
53	0x3a82b3dd	0.0009971816
54	0x00000000	0.0
55	0xbc488886	-0.012239581
56	0xbaf58d1e	-0.0018734073
57	0x00000000	0.0
58	0x3b85ed48	0.004087124
59	0x00000000	0.0
60	0x3b8309b8	0.0039989613
61	0x00000000	0.0
62	0xbadbb32c	-0.0016761771
63	0x00000000	0.0

conv1.lin.weight f4 [64, 13]
0	0x3e646d4a	0.22307315
1	0xbe835178	-0.25648093
2	0x3e64c771	0.22341706
3	0xbdb0b021	-0.08627344
4	0xbe404a70	-0.18778396
5	0xbe32d757	-0.17464958
6	0x3d2202db	0.039553504
7	0x3e1dac49	0.15397753
8	0x3db76ec7	0.08956676
9	0x3e6e45b8	0.23268783
10	0xbe4f123b	-0.20221798
11	0xbe372d5b	-0.17888395
12	0xbdb094df	-0.08622145
13	0x3e52c4a8	0.20582831
14	0xbe036391	-0.1283095
15	0xbd1839da	-0.037164547
16	0x3e3fdfa0	0.1873765
17	0x3db61f28	0.08892661
18	0x3e02f888	0.1279012
19	0x3e89fd68	0.26951146
20	0x3e58cb49	0.21171297
21	0xbcb96343	-0.02263034
22	0x3e5019c1	0.20322324
23	0x3e4ba14a	0.19885746
24	0x3d66ea3f	0.05637574
25	0xbe4e5e9e	-0.20153281
26	0x3e5f0920	0.21780825
27	0x3e196409	0.14979567
28	0xbe43f0ca	-0.19134822
29	0xbe28cf2e	-0.16485283
30	0xbe8fc341	-0.28078654
31	0x3d1b6065	0.037933726
32	0xbd839160	-0.064242125
33	0xbe4945d5	-0.19655545
34	0xbe84a309	-0.25905636
35	0xbd6c5ac6	-0.057703756
36	0xbdfff41f	-0.12497734
37	0xbe5561d7	-0.20838104
38	0xbe6cb00c	-0.23114032
39	0x3e82d7b3	0.2555519
40	0xbe4d448c	-0.2004568
41	0x3d84dd2b	0.06487497
42	0xbe2f8936	-0.17142186
43	0x3e3ed2d7	0.18635117
44	0xbe4839d8	-0.19553316
45	0x3e457e35	0.19286425
46	0xbe4f3d74	-0.20238286
47	0xbda3a06d	-0.07989583
48	0x3ccb2ebb	0.024802556
49	0x3d6ca52e	0.057774715
50	0x3dbfd138	0.09366077
51	0xbe8cf909	-0.2753375
52	0x3d8a9c69	0.06768114
53	0xbe8bc756	-0.2730052
54	0x3d87364a	0.06602152
55	0xbc7bd801	-0.015371324
56	0x3dde686c	0.10859761
57	0x3dd8aeb9	0.10580201
58	0xbd76878e	-0.06018787
59	0xbe098b70	-0.13432097
60	0xbdf0b4ea	-0.117532566
61	0x3e66e5b7	0.22548567
62	0xbe1daf07	-0.15398799
63	0x3e61576a	0.22006002
64	0x3d53590f	0.051598605
65	0xbe88d917	-0.26728126
66	0x3e28c4a8	0.16481268
67	0x3dbf7c46	0.09349875
68	0x3e6f0faa	0.23345819
69	0xbe284aa3	-0.16434722
70	0x3ddd839b	0.108161174
71	0x3e452430	0.19252086
72	0x3c12c4ab	0.008958022
73	0x3e3c6e63	0.18401484
74	0xbe30a0c4	-0.17248827
75	0xbe1af29c	-0.1513161
76	0xbe38e359	-0.18055476
77	0x3e8997fe	0.26873773
78	0x3e709cea	0.23497358
79	0x3df281eb	0.11841186
80	0x3c6502e3	0.013977739
81	0xbe534c04	-0.20634466
82	0xbe8e0c87	-0.27743933
83	0x3e83e4a3	0.25760373
84	0xbd3a2f39	-0.04545519
85	0x3dd2e835	0.10298196
86	0xbd35e1c7	-0.04440477
87	0xbd7c216d	-0.061555315
88	0xbcd87b3e	-0.026425954
89	0x3d8b56a4	0.06803635
90	0x3da9f199	0.08298034
91	0xbd93453d	-0.071909405
92	0x3e3a591a	0.18198052
93	0xbd671e81	-0.056425575
94	0x3ba54635	0.0050437697
95	0x3de64656	0.11243884
96	0x3c8e0fa7	0.017341448
97	0xbc7b0884	-0.0153218545
98	0x3e8c9402	0.2745667
99	0xbe546a2b	-0.20743625
100	0x3d8f7eb3	0.07006588
101	0x3c9b4251	0.01895252
102	0x3e793c5f	0.24339436
103	0xbe616fa8	-0.2201525
104	0xbdc8f7f5	-0.09812919
105	0xbda602f3	-0.08106031
106	0xbe3e961e	-0.18611953
107	0x3e7b5734	0.24544984
108	0xbe2a479b	-0.16628878
109	0x3e6365ef	0.22206853
110	0x3e09b942	0.13449576
111	0xbd80168f	-0.06254303
112	0x3e5ad1bc	0.2136907
113	0xbddf2f92	-0.10897745
114	0xbe6a82f0	-0.22901511
115	0xbcbf4f55	-0.023353258
116	0x3e10b99f	0.14133309
117	0xbc885d47	-0.01664604
118	0xbe6313b7	-0.2217549
119	0x3e3c9934	0.18417817
120	0xbe0f8d57	-0.1401876
121	0xbe6966b5	-0.22793086
122	0x3dba8f61	0.091093786
123	0x3d8a762e	0.06760822
124	0xbe51068f	-0.20412658
125	0x3d918fcd	0.07107506
126	0x3cc0e2f1	0.023545714
127	0xbe0832e4	-0.13300663
128	0xbdd34e73	-0.103176974
129	0x3d9e2c3d	0.077232815
130	0x3de02087	0.10943704
131	0x3e5fa40a	0.2183992
132	0x3e0d6671	0.1380861
133	0x3e1ffc91	0.1562369
134	0x3cdf41e8	0.027253106
135	0xbe8f1dc7	-0.27952406
136	0x3dfe14a5	0.124062814
137	0xbdb22135	-0.0869774
138	0xbe65843f	-0.22413729
139	0x3de323d3	0.11090817
140	0xbe1a67e1	-0.15078689
141	0xbe60d8d3	-0.21957712
142	0x3d72e312	0.059298582
143	0xbe620c22	-0.22074941
144	0xbe81b51a	-0.25333482
145	0xbc79bdc3	-0.015242997
146	0x3e64fade	0.22361323
147	0xbe4d1fed	-0.2003171
148	0x3e5de089	0.21667685
149	0x3e3e34bf	0.18574809
150	0xbde8d97c	-0.11369607
151	0x3db9c174	0.090701014
152	0x3b5f73c5	0.0034096104
153	0xbe4094f2	-0.18806818
154	0x3e571da0	0.21007395
155	0xbe808e30	-0.2510848
156	0x3e6edd3c	0.23326582
157	0x3e6e9175	0.23297675
158	0x3e3efed7	0.18651901
159	0x3e3e312b	0.18573444
160	0xbe9021b8	-0.28150725
161	0x3e668dde	0.22515056
162	0x3e0522e7	0.13001595
163	0x3dcdfda6	0.10058145
164	0xbe640ad8	-0.22269762
165	0x3d998cf9	0.074975915
166	0xbcf5e481	-0.030016186
167	0x3d28d88e	0.041222148
168	0x3d3f6425	0.046726365
169	0xbe8cdc0b	-0.2751163
170	0x3dbc9c4a	0.09209497
171	0xbe81c5f4	-0.2534634
172	0xbe603b46	-0.21897611
173	0x3d90d65b	0.07072135
174	0x3d51f270	0.051256597
175	0xbdde068c	-0.108410925
176	0xbe5a88a5	-0.21341188
177	0x3da03eda	0.07824488
178	0xbe8066d6	-0.25078458
179	0xbdb55983	-0.08854964
180	0xbe1d918a	-0.1538755
181	0x3d00cd3d	0.03144573
182	0xbd89d4d8	-0.0673005
183	0xbe45a35d	-0.193006
184	0x3e49a1e2	0.1969066
185	0x3d928321	0.07153917
186	0x3e66f17a	0.22553053
187	0xbe8a1b21	-0.26973823
188	0xbda6684c	-0.08125362
189	0x3ca424fa	0.020037163
190	0xbe25748a	-0.16157737
191	0xbe67c748	-0.22634614
192	0x3dc6bb45	0.097036876
193	0x3d5446da	0.05182538
194	0xbdc916a7	-0.09818774
195	0xbb05c351	-0.0020410607
196	0x3d1182fd	0.03552531
197	0x3e5b45dc	0.21413368
198	0xbd421a18	-0.047388166
199	0x3dfc80fe	0.12329291
200	0xbe0aeb36	-0.13566288
201	0x3e5ee673	0.21767597
202	0x3da753bc	0.08170268
203	0xbe39014e	-0.18066904
204	0x3d4ac1e3	0.04950131
205	0xbde1f50d	-0.11033068
206	0x3e52bdf6	0.20580277
207	0xbd994eba	-0.07485719
208	0x3e887f0e	0.26659435
209	0x3e42f3a5	0.19038256
210	0x3d555ad1	0.052088562
211	0xbe1beb8c	-0.15226573
212	0xbd9bfc7a	-0.076165155
213	0x3e781eb9	0.2423047
214	0x3ddef7b9	0.10887093
215	0x3e710f12	0.23540905
216	0x3d82175a	0.0635211
217	0x3db6a6bd	0.089185216
218	0xbdc66e9e	-0.09689067
219	0x3da82f63	0.08212163
220	0xbdc253d1	-0.09488643
221	0x3dde9735	0.10868684
222	0xbe562a3d	-0.2091455
223	0xbe769f81	-0.24084283
224	0xbda385c1	-0.07984496
225	0xbd4172c7	-0.0472286
226	0xbe19f062	-0.15033105
227	0x3ddc2509	0.107492514
228	0x3ddc1365	0.10745887
229	0x3e72bd49	0.23705019
230	0x3bd05de2	0.006358848
231	0x3e3c2d25	0.18376596
232	0xbdbfb680	-0.09360981
233	0x3e10c97e	0.14139363
234	0x3cf85c6a	0.030317504
235	0x3e4ca6ba	0.19985476
236	0x3e833163	0.25623617
237	0x3e6b5a9b	0.22983782
238	0x3e57b16b	0.21063773
239	0x3e5d6575	0.21620734
240	0xbbcb1f32	-0.006198787
241	0x3e23549c	0.15950245
242	0xbe85bfcb	-0.2612289
243	0x3d2e2990	0.042520106
244	0x3e601722	0.21883824
245	0xbd4b2b85	-0.04960205
246	0xbdc7ccfa	-0.09755893
247	0xbdfc68f3	-0.12324705
248	0x3d9ba136	0.07599108
249	0xbe8e094f	-0.27741477
250	0xbcd9599b	-0.026531985
251	0xbdc04f2d	-0.093901016
252	0x3e08c313	0.13355665
253	0x3e485509	0.19563688
254	0xbc4ae0fd	-0.012382743
255	0x3df9fe02	0.12206651

conv2.att_src f4 [1, 1, 64]
0	0xbda8e78d	-0.0824729
1	0xbbcef6ad	-0.006316027
2	0xbcc04f31	-0.023475261
3	0x3d00410d	0.031312037
4	0x3e85ab0a	0.26107055
5	0x3e1f64bd	0.15565772
6	0xbcf07a3c	-0.02935516
7	0x3e1ebde1	0.1550212
8	0x3d21c4a9	0.03949419
9	0xbd0234c3	-0.0317886
10	0xbcae8e29	-0.021308022
11	0xbbe1b1b4	-0.006887639
12	0xbd8a8dd1	-0.067653306
13	0x3dc15be1	0.09441353
14	0xbe7362b3	-0.2376812
15	0xbe8a6666	-0.2703125
16	0x3e0fd6df	0.1404681
17	0xbde815c8	-0.113322794
18	0x3e874e64	0.26426995
19	0xbd8f70c0	-0.07003927
20	0x3e327e7e	0.17431065
21	0xbe84de93	-0.2595106
22	0xbd2c6331	-0.042086784
23	0x3e0e429b	0.13892595
24	0x3e61b27f	0.22040747
25	0xbe0d31d5	-0.1378854
26	0xbe514586	-0.20436677
27	0x3e44026e	0.19141552
28	0x3defd4a3	0.11710479
29	0xbe00f595	-0.12593682
30	0x3dcf3360	0.10117221
31	0xbd6d366e	-0.057913236
32	0x3e185534	0.14876252
33	0x3cfe9da0	0.03108102
34	0xbe7689da	-0.24076024
35	0x3e924380	0.28567123
36	0x3dfee363	0.12445714
37	0x3e6cb9f9	0.23117818
38	0x3e304f37	0.17217718
39	0xbe4def56	-0.2011083
40	0x3e5fa452	0.21840027
41	0xbe985961	-0.2975569
42	0xbbc7dbce	-0.006099201
43	0x3e6f47dd	0.23367257
44	0x3e9a2e4c	0.30113447
45	0x3d5d43c9	0.054019723
46	0xbe23611e	-0.15955016
47	0xbe8cb197	-0.2747924
48	0x3e3b914f	0.1831715
49	0xbe941638	-0.28923202
50	0x3e091946	0.13388547
51	0x3bafface	0.0053704744
52	0xbdb965ab	-0.09052595
53	0x3b929edf	0.0044745053
54	0xbe61c3fa	-0.22047415
55	0x3e15ee46	0.14641675
56	0x3e723257	0.23652016
57	0xbd2afc62	-0.041744597
58	0xbe3fbbc5	-0.18723972
59	0xbc13fd42	-0.009032549
60	0x3e43123f	0.19049929
61	0xbe0c5803	-0.13705449
62	0x3e39e724	0.1815458
63	0x3dfa611b	0.12225553

conv2.att_dst f4 [1, 1, 64]
0	0x3d663c23	0.056209695
1	0x3e00902f	0.12555002
2	0x3cf288c6	0.029606234
3	0x3e32b018	0.17449987
4	0xbe43b0a3	-0.1911035
5	0x3e36ccda	0.17851582
6	0xbe1d47af	-0.15359376
7	0x3dc3d4a6	0.09562044
8	0xbcefffe6	-0.029296827
9	0x3d95a0db	0.07306071
10	0x3c90adf0	0.017661065
11	0xbd2c5323	-0.042071473
12	0xbe8a943a	-0.27066213
13	0xbe4e007d	-0.20117374
14	0x3c10715b	0.008816089
15	0xbdc65d8a	-0.0968581
16	0x3deddc9f	0.11614346
17	0xbe8d5cd0	-0.27609873
18	0xbca73585	-0.020411262
19	0xbb29afb9	-0.0025892092
20	0x3dab9fc9	0.08380086
21	0x3dd35a05	0.10319904
22	0xbe987364	-0.29775536
23	0xbe3a2ab1	-0.18180348
24	0xbdeeef75	-0.116667666
25	0xbe4763fd	-0.19471736
26	0x3dbb44dc	0.09143993
27	0xbe3bc9c9	-0.18338694
28	0x3e353c67	0.17698823
29	0xbd20edfb	-0.039289456
30	0x3e408bcf	0.18803333
31	0x3e0c3124	0.1369062
32	0x3dd83ec1	0.10558844
33	0x3e845cea	0.25852138
34	0x3d6d80c8	0.057984143
35	0x3d9cc94a	0.0765558
36	0xbdf196ca	-0.11796339
37	0x3e1e7f01	0.15478136
38	0xbe0c878b	-0.1372358
39	0x3e8927d3	0.26788196
40	0xbe720ba8	-0.23637259
41	0x3d70c191	0.05877835
42	0x3e0af23b	0.13568966
43	0xbd381459	-0.04494128
44	0xbe37a7c6	-0.17935094
45	0x3d40cf35	0.047072608
46	0x3d994c07	0.07485204
47	0x3e402a18	0.18766057
48	0x3e246745	0.16055019
49	0x3e527c95	0.20555337
50	0xbe702926	-0.23453197
51	0x3dbafc8d	0.091302015
52	0x3e8fac52	0.28061157
53	0x3e0e8bb9	0.13920487
54	0xbe4bd943	-0.19907098
55	0xbdb3f2ed	-0.08786569
56	0x3e0e3b52	0.13889816
57	0xbe25d198	-0.16193235
58	0xbc91cdf9	-0.01779841
59	0x3d889381	0.06668759
60	0xbd964797	-0.073378734
61	0x3e0b86bc	0.13625616
62	0x3df4035c	0.11914703
63	0xbd0e4f82	-0.034743793

conv2.bias f4 [64]
0	0xbbcfe078	-0.0063438974
1	0x3bf42e7a	0.0074518295
2	0x3bd6c5c1	0.006554336
3	0xbc243286	-0.010021811
4	0x3bad0249	0.0052798134
5	0x3c86d839	0.016460525
6	0x39e979ae	0.00044531882
7	0xbc19cf74	-0.00938784
8	0x3c3a7c23	0.011382136
9	0x3c568929	0.013094225
10	0x3c2f07c2	0.010683002
11	0x3c3be34f	0.011467769
12	0xbc01d07a	-0.00792324
13	0xbbc3aed3	-0.0059717684
14	0xbc3040af	-0.010757609
15	0x3b5114f4	0.0031903358
16	0xbb4aa9d3	-0.0030923977
17	0xbc3ae167	-0.011406279
18	0x3be1ee21	0.0068948423
19	0x3c83f3e0	0.0161075
20	0x3c8b7567	0.017023755
21	0x3c90ec43	0.017690783
22	0x3bf72e47	0.0075433585
23	0xbc965b86	-0.018354189
24	0x3c515ee1	0.012778969
25	0xbc1bae78	-0.009502046
26	0xbc51eaf2	-0.012812363
27	0x3c09d8c6	0.008413499
28	0xbba29431	-0.0049615134
29	0x3bba5acc	0.0056870934
30	0x3c9feffe	0.019523617
31	0x00000000	0.0
32	0x3add0222	0.0016861598
33	0x00000000	0.0
34	0xbbe47aa5	-0.006972628
35	0xbc6aebe0	-0.014338464
36	0xbc1332fd	-0.0089843245
37	0x394b8a91	0.00019411209
38	0x3c517f5e	0.012786714
39	0x3c952a0b	0.018208524
40	0xbc231941	-0.0099547515
41	0xbc6abe26	-0.0143275615
42	0xbc480eb0	-0.012210533
43	0x3b3e6b00	0.0029055476
44	0x3c95c012	0.018280063
45	0x00000000	0.0
46	0xbc47267c	-0.0121551715
47	0x3987d09b	0.0002590463
48	0xbb3ca751	-0.0028786252
49	0x3a04a563	0.0005060045
50	0xbc0f5b32	-0.00874977
51	0x3c41fe9c	0.011840489
52	0xbb5630be	-0.0032682861
53	0x00000000	0.0
54	0xbc4802df	-0.012207716
55	0x00000000	0.0
56	0xbb654c32	-0.0034988043
57	0xbbf8e406	-0.007595542
58	0x3c933968	0.01797171
59	0x3c57a0ee	0.013160927
60	0x3c8cf8c6	0.017208468
61	0xbaf3de16	-0.0018605615
62	0x3c810294	0.0157483
63	0xbbd9dc2a	-0.00664856

conv2.lin.weight f4 [64, 64]
0	0xbe5cc75a	-0.21560422
1	0xbe3763db	-0.17909186
2	0x3dc27816	0.09495561
3	0xbe49d447	-0.19709884
4	0xbbb74be0	-0.005593762
5	0x3cb54bba	0.022130836
6	0xbd90dc86	-0.070733115
7	0x3d7c3bbc	0.061580405
8	0x3e3e3107	0.1857339
9	0xbcaafd90	-0.020872861
10	0x3dc7cdd2	0.09756054
11	0x3dbcc385	0.0921698
12	0x3e57ab29	0.21061386
13	0xbe4fdf9e	-0.20300147
14	0xbc32df00	-0.010917425
15	0xbe485ddf	-0.19567059
16	0xbdcbba69	-0.09947664
17	0xbe377390	-0.17915177
18	0x3e0aff1b	0.13573878
19	0xbd80a91a	-0.062822536
20	0x3d2e11a6	0.0424973
21	0x3831cfde	4.239368e-05
22	0xbe2742c6	-0.16334066
23	0xbe5ab54c	-0.21358222
24	0x3d14bb2c	0.036311314
25	0x3e24a0de	0.16076991
26	0x3e21f6f7	0.15816866
27	0xbe3e7410	-0.18598962
28	0x3e101730	0.14071345
29	0xbe34b5af	-0.17647432
30	0xbe1e520f	-0.1546099
31	0x3df762ce	0.120793924
32	0x3d887932	0.06663741
33	0xbdca9340	-0.09891367
34	0x3e54c33f	0.20777605
35	0xbdaba86e	-0.08381735
36	0x3dd6b672	0.104840174
37	0xbe223c7f	-0.1584339
38	0xbe0f622e	-0.14002296
39	0x3e327ea7	0.17431127
40	0x3de9329c	0.11386606
41	0x3da2e8a2	0.079545274
42	0x3e487f17	0.19579731
43	0xbe11bd16	-0.14232287
44	0x3db5f860	0.088852644
45	0x3d3cc7d4	0.04608901
46	0xbe5b8cc3	-0.21440415
47	0xbdd2cf1e	-0.10293411
48	0xbe5d16a8	-0.21590674
49	0xbe4655c9	-0.19368662
50	0xbb330bc0	-0.0027320236
51	0xbd40f37c	-0.047107205
52	0x3d7f62bc	0.06235002
53	0x3d766749	0.060157094
54	0x3d1bc39c	0.038028345
55	0x3c31ac5d	0.010844317
56	0x3de100c0	0.10986471
57	0x3e4cbacb	0.19993131
58	0xbe307306	-0.17231378
59	0x3e238b23	0.15971045
60	0x3db19fdf	0.08673071
61	0xbc02bae0	-0.007979125
62	0xbdf3adee	-0.11898409
63	0xbd3a0eb8	-0.045424193
64	0x3df78ff7	0.12088006
65	0xbb784067	-0.0037880184
66	0x3d2a8e94	0.04163988
67	0xbe243318	-0.16035116
68	0xbd934830	-0.07191503
69	0xbe0907f0	-0.13381934
70	0xbe19c466	-0.15016326
71	0x3e5b3e03	0.21410374
72	0xbe4ca7bc	-0.1998586
73	0xbe1a801e	-0.15087935
74	0xbda00b76	-0.07814686
75	0xbe42f967	-0.19040452
76	0xbdf65c3f	-0.12029313
77	0xbe3a8bc6	-0.18217382
78	0xbd23c234	-0.03998013
79	0xbd9147e8	-0.07093793
80	0xbd428708	-0.047492057
81	0xbd83181b	-0.06401082
82	0xbe55131e	-0.20808074
83	0x3dc337f0	0.095321536
84	0x3e3e841d	0.18605085
85	0xbe2e6490	-0.17030549
86	0xbe2f5804	-0.17123419
87	0xbdb82d95	-0.08993069
88	0xbd4fa380	-0.050693035
89	0x3dd70c5f	0.105004065
90	0x3d9c3a42	0.07628299
91	0x3e316f00	0.173275
92	0x3e4ffa69	0.20310368
93	0xbb8f60be	-0.0043755462
94	0xbe6246ee	-0.2209737
95	0x3d923d5a	0.07140608
96	0x3e365163	0.17804484
97	0x3e06090f	0.13089393
98	0xbd5e3cc2	-0.054257162
99	0x3e04d0eb	0.12970321
100	0xbd3df598	-0.046376795
101	0xbdc09572	-0.094035044
102	0xbe23f0e2	-0.16009858
103	0x3e3d6883	0.184969
104	0x3db500f7	0.08838075
105	0x3e12ca3d	0.1433496
106	0x3cac7720	0.021052897
107	0x3c637c10	0.013884559
108	0x3e3f83e0	0.1870265
109	0x3e5359ef	0.20639776
110	0xbc3893c4	-0.011265699
111	0xbe286a85	-0.16446884
112	0xbd6e7eb0	-0.058226287
113	0xbe147caa	-0.1450068
114	0xbd88ef92	-0.066863194
115	0xbe276109	-0.1634561
116	0xbe5841a2	-0.21118787
117	0x3cc79ee5	0.024367759
118	0xbcbc36f0	-0.022975415
119	0x3def2039	0.11676068
120	0x3dd0c60d	0.10194025
121	0x3d1f37fc	0.03887175
122	0xbe49ab9a	-0.19694367
123	0xbd34fa70	-0.04418415
124	0xbbdefa5b	-0.006804747
125	0xbaaa0100	-0.0012970269
126	0xbdc3f8c7	-0.09568935
127	0x3e25bd61	0.16185524
128	0xbdf260bb	-0.11834856
129	0xbe2ec748	-0.17068207
130	0x3d88c93e	0.06679009
131	0x3dc3a672	0.09553231
132	0x3d5bac1c	0.053630933
133	0x3e1d663e	0.15371034
134	0x3d3aac94	0.04557474
135	0x3de9dd92	0.11419214
136	0xbd539cd7	-0.051663246
137	0x3e2b7d21	0.16746952
138	0x3e3a0991	0.18167712
139	0xbdad944e	-0.084755525
140	0x3e1a3e95	0.15062936
141	0xbd392c7a	-0.04520843
142	0xbd777430	-0.06041354
143	0x3e2e8529	0.17042984
144	0x3e126f6c	0.14300317
145	0xbe463fa5	-0.19360216
146	0xbdca6147	-0.098818354
147	0x3d28ee8f	0.041243132
148	0xbdc772d2	-0.09738697
149	0xbe2eb687	-0.17061816
150	0x3e377be3	0.17918353
151	0x3df4331d	0.119238116
152	0x3d0b8891	0.034065787
153	0xbe100027	-0.14062558
154	0xbcd0aed8	-0.025473997
155	0x3e54fed2	0.20800331
156	0x3e17c7f8	0.14822376
157	0x3e526102	0.20544818
158	0x3bc17c6b	0.0059047244
159	0xbe58270a	-0.21108642
160	0x3c8d3c48	0.017240658
161	0x3e1a8757	0.1509069
162	0xbcb003ec	-0.021486245
163	0x3e1a83c1	0.15089323
164	0x3de87cca	0.113519266
165	0x3c953af4	0.018216588
166	0xbe42e932	-0.1903427
167	0x3d15049c	0.03638135
168	0xbc90d7b7	-0.017680986
169	0xbe19dbb5	-0.15025218
170	0xbe3ae21c	-0.18250316
171	0xbe4a1727	-0.19735394
172	0xbb30f446	-0.0027001067
173	0x3d2a66cc	0.04160194
174	0x3e538fc6	0.20660314
175	0xbda232b0	-0.07919824
176	0x3e408219	0.18799628
177	0xb9c6856d	-0.00037864913
178	0x3d906c46	0.070519015
179	0x3e38f67f	0.18062781
180	0x3d8f203e	0.069885716
181	0x3dc22845	0.09480337
182	0x3e4a9471	0.19783188
183	0xbe31bf54	-0.17358142
184	0x3e4218f9	0.18954839
185	0x3e2e3489	0.17012228
186	0x3dd51d61	0.10405994
187	0x3e352611	0.17690302
188	0xbe05ab77	-0.1305369
189	0xbe14bd14	-0.14525253
190	0xbe2f2bce	-0.17106554
191	0xbcf2bf48	-0.029632226
192	0x3e3bd735	0.18343814
193	0xbdc39c0c	-0.09551248
194	0x3e36d661	0.17855217
195	0xbe260a44	-0.16214854
196	0x3e45fc69	0.19334568
197	0x3e227e68	0.15868533
198	0xbddc73ed	-0.107642986
199	0xbd4bc270	-0.049745977
200	0x3de09613	0.109661244
201	0xbdcde340	-0.1005311
202	0xbdcd29c3	-0.10017731
203	0xbe1ca031	-0.15295483
204	0xbe549aea	-0.2076222
205	0x3e4a0193	0.19727163
206	0x3e12b90b	0.14328401
207	0xbd9e4b66	-0.07729225
208	0x3d6f6976	0.058450185
209	0x3cf61036	0.030037027
210	0xbc89b718	-0.016810939
211	0x3dc238f8	0.09483522
212	0xbe23310d	-0.1593668
213	0xbe0c7ecc	-0.13720244
214	0x3e308b95	0.17240746
215	0x3d3ea478	0.04654357
216	0x3d2a7be9	0.041622076
217	0xbe5b9f16	-0.21447405
218	0x3e250887	0.16116534
219	0xbd83c8f1	-0.06434811
220	0xbcad6742	-0.021167401
221	0xbc805b3e	-0.015668508
222	0x3d1b7210	0.037950575
223	0x3e19aeb1	0.15008046
224	0xbe0dfd02	-0.13866046
225	0xbe461d3f	-0.19347094
226	0xbe3f808a	-0.18701378
227	0xbd3e27e0	-0.046424747
228	0xbd648ffc	-0.055801377
229	0x3d91e1d4	0.071231514
230	0xbe2cb5c7	-0.16866218
231	0xbc462b70	-0.012095317
232	0x3d4eea66	0.05051651
233	0x3d879196	0.06619565
234	0x3e1735d7	0.14766632
235	0x3d93bc0e	0.07213603
236	0x3e2aaa3f	0.16666506
237	0xbdb0894e	-0.08619939
238	0x3ddff6f6	0.10935776
239	0xbdb46df1	-0.08810032
240	0xbe1171dc	-0.1420359
241	0xbe4dbfe8	-0.20092738
242	0x3da2e986	0.07954697
243	0xbd83a21e	-0.06427406
244	0x3e23affd	0.15985103
245	0xbd3eac47	-0.046551015
246	0xbe45cc56	-0.19316229
247	0x3d946de4	0.072475225
248	0xbe30cd00	-0.17265701
249	0x3c310750	0.010804966
250	0x3b619eff	0.0034427044
251	0xbe085cfe	-0.13316724
252	0x3de47a4c	0.11156139
253	0xbdd636fd	-0.10459707
254	0xbd52ad60	-0.051434875
255	0xbd925ed2	-0.07146992

conv3.att_src f4 [1, 1, 64]
0	0x3e5ad08d	0.21368618
1	0x3db62efd	0.08895681
2	0x3e676040	0.2259531
3	0x3e789159	0.24274196
4	0xbd84f061	-0.06491161
5	0xbe0f7a58	-0.14011514
6	0xbe58d141	-0.21173574
7	0xbe21d388	-0.15803349
8	0xbd4e3c86	-0.05035069
9	0xbdfdf8ca	-0.124009684
10	0xbdea174f	-0.11430227
11	0x3d4a1a11	0.049341265
12	0xbe0b2901	-0.1358986
13	0x3e786207	0.24256144
14	0xbe79d50b	-0.24397676
15	0x3ddca3bd	0.10773418
16	0xbe57f247	-0.21088515
17	0xbe11bb66	-0.14231643
18	0x3ea18a6c	0.3155092
19	0xbcbf5b53	-0.023358976
20	0xbe88babd	-0.2670497
21	0xbe91b557	-0.28458664
22	0x3da4c004	0.080444366
23	0x3e8fb834	0.28070223
24	0xbe8b39c7	-0.27192518
25	0xbdb37d87	-0.08764177
26	0x3dd43342	0.10361339
27	0xbdff9b38	-0.124807775
28	0x3e96c3f9	0.2944639
29	0x3d20a904	0.039223686
30	0x3d2ce03e	0.04220604
31	0xbdd1c6d6	-0.10243003
32	0x3d91f24b	0.07126292
33	0xbe91ce80	-0.2847786
34	0xbe2a47fd	-0.16629024
35	0x3dfe0fcd	0.124053575
36	0xbde5ac4e	-0.11214505
37	0xbd861834	-0.06547585
38	0x3e750ed9	0.23931445
39	0xbe809fef	-0.2512202
40	0x3e73e3c7	0.23817359
41	0xbe565d24	-0.20933968
42	0xbe961c98	-0.2931869
43	0xbda04cc3	-0.07827141
44	0xbc60f47a	-0.013730163
45	0xbe2260cf	-0.15857242
46	0x3cf0a553	0.029375708
47	0x3e27e287	0.16395007
48	0x3e3d9667	0.18514405
49	0x3e576bc4	0.21037203
50	0x3e39d72b	0.18148486
51	0x3dd4d106	0.103914306
52	0xbd0f98d9	-0.035057876
53	0xbd65af95	-0.05607565
54	0x3e5d7f4a	0.21630588
55	0x3bd1dcd6	0.0064044995
56	0xbe8d2b57	-0.27572128
57	0x3d8701f4	0.065921694
58	0x3dfdaf05	0.12386898
59	0x3dffdc37	0.124931745
60	0x3debd92a	0.1151603
61	0x3d86c63c	0.06580779
62	0xbdd7630c	-0.105169386
63	0xbe2f4d19	-0.17119254

conv3.att_dst f4 [1, 1, 64]
0	0x3bc2adac	0.0059411135
1	0x3d9afd2f	0.07567822
2	0xbcce15f2	-0.025156949
3	0xbd41b7bf	-0.047294375
4	0xbdacdff0	-0.0844115
5	0x3daa4e14	0.083156735
6	0xbce67e0e	-0.02813628
7	0x3e0c166e	0.13680431
8	0xbe52c4b7	-0.20582853
9	0x3e212fa4	0.1574083
10	0xbe52ef0c	-0.20599002
11	0x3dd9f901	0.10643197
12	0x3d1b465c	0.037908897
13	0x3e0351dc	0.12824196
14	0x3dfe13f7	0.12406152
15	0xbe8b9f69	-0.27270058
16	0x3d5befce	0.053695492
17	0x3bf2127e	0.0073874583
18	0x3dbea2df	0.09308409
19	0x3d1e8e7e	0.03871011
20	0x3d8096b1	0.06278742
21	0xbdc821f5	-0.09772102
22	0xbdb09834	-0.086227804
23	0x3e31d958	0.17368066
24	0x3c4c45b5	0.012467791
25	0xbd634178	-0.055482358
26	0xbe8d0721	-0.275445
27	0x3e586092	0.21130589
28	0x3e96badd	0.2943944
29	0xbe400ab9	-0.1875409
30	0x3df682d7	0.120366745
31	0x3e343ad4	0.17600566
32	0x3e650df6	0.22368607
33	0x3dee2fcf	0.116302125
34	0x3e5fb159	0.21844997
35	0xbdf87faa	-0.12133725
36	0xbd53d799	-0.05171928
37	0x3dedec7d	0.11617372
38	0xbe5aec0c	-0.21379107
39	0xbe3d4020	-0.18481493
40	0x3e9be44f	0.30447623
41	0x3e0d07c2	0.1377249
42	0xbd810d2d	-0.06301341
43	0x3dc46246	0.09589057
44	0x3b40c0e8	0.0029411856
45	0xbd399a1f	-0.045312997
46	0x3e801ea2	0.2502337
47	0xbe8ecee3	-0.27892217
48	0x3e72ee77	0.2372378
49	0x3e9e13bf	0.3087444
50	0x3e83f741	0.25774577
51	0x3c8eea81	0.017445805
52	0x3e8108a1	0.25201896
53	0x3d5ca33a	0.053866602
54	0x3b6c49d8	0.0036054756
55	0xbd9d187b	-0.07670685
56	0x3e213a48	0.15744889
57	0x3e465f66	0.19372329
58	0xbe702e3f	-0.23455141
59	0x3e7d5a50	0.24741483
60	0x3e7dd078	0.24786556
61	0x3d3ad8e3	0.045616996
62	0xbe953b50	-0.29146814
63	0x3c0411fd	0.008060929

conv3.bias f4 [64]
0	0xbc3929fb	-0.011301513
1	0xbbfbb4f3	-0.007681483
2	0xbb31afb3	-0.0027112782
3	0x3c794a2e	0.01521544
4	0xbc47df48	-0.0121992305
5	0x3c7e52aa	0.015522638
6	0xbc40766e	-0.011746986
7	0xbbdbed81	-0.0067116623
8	0xbb965882	-0.0045881877
9	0x3c742222	0.014900716
10	0xbbd581df	-0.006515726
11	0xbc49a79c	-0.012308028
12	0xbc1b5c0c	-0.009482395
13	0xbbd17725	-0.006392377
14	0xbc22d764	-0.009939048
15	0x3c85909b	0.016304305
16	0xbc1f56f9	-0.009725326
17	0xbbc4386b	-0.005988171
18	0x3c645a8d	0.013937605
19	0xbabf1a88	-0.001458005
20	0x3c7d1058	0.015445791
21	0x3c8f79e3	0.017514175
22	0xbb0f22fa	-0.0021840916
23	0xbbe771d1	-0.0070631285
24	0x3c924d0c	0.017859004
25	0xbc2a9dbd	-0.010413584
26	0x3c30d1c8	0.010792203
27	0x3c9548eb	0.018223247
28	0x3c501bc2	0.0127019305
29	0x3c6949fe	0.0142388325
30	0x3c6726ab	0.01410834
31	0xba3f2d51	-0.00072928244
32	0xbc37726c	-0.011196714
33	0xbc209a18	-0.009802364
34	0xbb4434cb	-0.0029938694
35	0xbcbbe7e0	-0.022937715
36	0xbaebb1d8	-0.0017982079
37	0x3c74b9d7	0.014936886
38	0xbc10d613	-0.008840102
39	0x3c631ec2	0.013862314
40	0x3cb822e3	0.022477573
41	0xbba86aac	-0.0051396694
42	0xbc0cf34a	-0.0086029265
43	0x3c17e38e	0.009270562
44	0x3c646c56	0.013941845
45	0x3c805672	0.01566622
46	0xbc5b6196	-0.0133899655
47	0xbc08e486	-0.0083552655
48	0xbc046d6f	-0.008082732
49	0x3d5a5fa1	0.053313855
50	0xbbf0e1aa	-0.00735112
51	0x3c35f129	0.01110486
52	0x3c6ce857	0.014459691
53	0x3c968140	0.018372178
54	0xbc06b34a	-0.008221457
55	0x3c850e5e	0.016242202
56	0xbb992c26	-0.0046744524
57	0xbbf15e04	-0.007365944
58	0xbc2c34c3	-0.010510626
59	0x3c821510	0.015879184
60	0xb9ab595e	-0.00032682245
61	0x3c89cb5b	0.0168206
62	0xbbbeb6e4	-0.005820142
63	0x3c8b2ae3	0.016988223

conv3.lin.weight f4 [64, 64]
0	0x3d6392b3	0.055559825
1	0xbbe1d264	-0.0068915356
2	0xbe354c25	-0.17704828
3	0xbdbf13f3	-0.09329977
4	0xbe0c5ad7	-0.13706528
5	0xbe4a69ed	-0.1976697
6	0xbdaf674f	-0.085646264
7	0x3d9fa706	0.07795529
8	0x3c869714	0.016429462
9	0xbb12f0b5	-0.0022421305
10	0x3dd0b846	0.10191397
11	0x3e48167d	0.19539829
12	0xbdac9b18	-0.08428019
13	0x3e24dcaf	0.16099809
14	0x3e3d7df1	0.18505074
15	0xbe24f83f	-0.16110323
16	0x3e418919	0.18899955
17	0x3e19b645	0.15010937
18	0xbe3e5cc2	-0.18590072
19	0xbe4162d7	-0.1888536
20	0x3e385e5f	0.1800475
21	0x3d221d17	0.039578523
22	0xbe1452c7	-0.14484702
23	0x3db4da08	0.08830649
24	0xbe37a49d	-0.17933889
25	0x3d3a515d	0.04548775
26	0x3c162cda	0.009165967
27	0x3df97fa2	0.12182547
28	0xbe2475d5	-0.16060574
29	0x3e0543e8	0.13014185
30	0x3e4b2e83	0.19841962
31	0x3d811b3a	0.06304021
32	0x3e3f6f35	0.18694766
33	0xbc23ff30	-0.010009572
34	0x3e4197d2	0.18905571
35	0xbd839dec	-0.064266056
36	0x3d598cf6	0.053112946
37	0x3e3373c5	0.17524631
38	0xbcc82c44	-0.02443517
39	0xbd06feab	-0.032957714
40	0xbdb6fa21	-0.08934427
41	0xbdccbfe1	-0.099975355
42	0xbdc90150	-0.098147035
43	0xbe4b3fe5	-0.19848593
44	0xbde7dfe8	-0.113220036
45	0xbe50f299	-0.20405044
46	0x3aca4111	0.0015430768
47	0xbd251b95	-0.040309507
48	0xbc9cc56a	-0.019137103
49	0xbdbbfc28	-0.09178954
50	0x3d208a0c	0.03919415
51	0xbe381c8c	-0.1797964
52	0x3ddca727	0.10774069
53	0xbc9abe38	-0.018889531
54	0xbe2f5ed7	-0.17126022
55	0xbe4c88cd	-0.1997406
56	0xbe27f849	-0.16403307
57	0x3cc83681	0.024440052
58	0x3ce849d4	0.028355516
59	0xbd8c200b	-0.06842049
60	0xbde14777	-0.10999959
61	0xbd8734e7	-0.06601887
62	0xbd4eb3e0	-0.05046451
63	0x3e157468	0.14595187
64	0xbe128210	-0.14307427
65	0x3e022fd8	0.12713563
66	0xbe4580d6	-0.19287428
67	0xbd92028d	-0.07129393
68	0xbdabb107	-0.08383375
69	0x3c32b2c5	0.01090688
70	0xbe2524fc	-0.1612739
71	0x3e12aee1	0.14324524
72	0xbce76ea0	-0.028250992
73	0xbd855456	-0.065102264
74	0x3d135ae5	0.035975356
75	0xbe138741	-0.14407064
76	0x3e52de17	0.20592533
77	0x3e0fd4fe	0.14046094
78	0x3cedadd8	0.02901356
79	0x3debc0e4	0.115114
80	0x3e4dbc28	0.20091307
81	0xbd0cf674	-0.034414724
82	0x3e0dab53	0.13834886
83	0xbe1783c3	-0.14796357
84	0x3df0a845	0.11750845
85	0xbe46c439	-0.1941079
86	0x3d8418b2	0.06450023
87	0xba477c77	-0.0007609794
88	0xbe0c2143	-0.13684563
89	0xbcd0822b	-0.025452694
90	0xbc15dc95	-0.009146829
91	0xbd1bfdf8	-0.038084
92	0x3e1d4656	0.15358862
93	0x3cfb7df8	0.030699715
94	0xbe5da9cf	-0.21646808
95	0x3e00d4c1	0.12581159
96	0x3caaf953	0.02087084
97	0x3c3a9110	0.011387125
98	0x3de14e9f	0.11001324
99	0x3e2515af	0.16121553
100	0x3b9d4a1d	0.0048000948
101	0x3e05fce1	0.13084747
102	0xbdcea7df	-0.100906126
103	0xbe31bb8a	-0.17356697
104	0xba521dc7	-0.00080153014
105	0xbdd74731	-0.105116256
106	0xbe17e0d3	-0.14831857
107	0x3d168b32	0.03675384
108	0x3dd12df4	0.10213843
109	0x3d0a3d64	0.033749953
110	0xbe2a0e64	-0.16607052
111	0xbd85cc1b	-0.06533071
112	0x3dd40fdd	0.10354588
113	0xbd196b54	-0.03745587
114	0x3e34e3f1	0.17665078
115	0x3e45034a	0.19239536
116	0x3cab99ba	0.020947326
117	0x3e5ca093	0.21545629
118	0x3dd581d7	0.104251556
119	0xbd9d31fc	-0.076755494
120	0xbdbba546	-0.09162383
121	0xbe27c7d7	-0.16384827
122	0x3d2e6057	0.042572346
123	0xbe03ddd8	-0.12877595
124	0xbe156810	-0.14590478
125	0x3e4ea6d0	0.20180821
126	0x3e4e84b8	0.20167816
127	0xbde9edc6	-0.11422305
128	0x3c8f0147	0.017456664
129	0x3cb59198	0.022164151
130	0x3e1ccb2a	0.15311876
131	0xbe3a3a74	-0.1818636
132	0xbe371514	-0.17879134
133	0xbe252096	-0.16125712
134	0xbddd66db	-0.10810634
135	0xbe1c2a46	-0.15250501
136	0x3dde6172	0.1085843
137	0x3e3a0ee8	0.18169749
138	0xbdbc66c4	-0.091992885
139	0xbbf92085	-0.0076027536
140	0x3e552f9d	0.20818944
141	0x3e0d292f	0.13785242
142	0xbd21749a	-0.03941784
143	0xbdfc696c	-0.12324795
144	0x3e5aa36e	0.21351406
145	0xbddd0bd9	-0.107932754
146	0xbe47fdd4	-0.19530421
147	0xbe1787c4	-0.14797884
148	0xbdb111ec	-0.086459965
149	0xbe306df2	-0.17229441
150	0x3df953ee	0.121742114
151	0xbe5ba45b	-0.21449415
152	0x3c9071b9	0.017632352
153	0xbe3a828b	-0.1821386
154	0x3d16fc83	0.036861908
155	0xbd8d5a28	-0.069019616
156	0x3d871dc2	0.06597473
157	0xbe2ec3aa	-0.17066827
158	0x3c6df7ee	0.014524443
159	0xbcfad708	-0.030620113
160	0x3d990557	0.074717216
161	0x3bf34060	0.0074234456
162	0x3d6c4966	0.057687186
163	0x3cbc95d9	0.023020672
164	0x3c88d0c3	0.016701108
165	0xbe5fb2e3	-0.21845584
166	0x3e65b66c	0.2243287
167	0xbd3c9129	-0.046036873
168	0xbdbf8c7c	-0.09352967
169	0x3d06fac0	0.032953978
170	0xbd0abe06	-0.033872627
171	0x3d8e092b	0.069353424
172	0x3e270201	0.16309358
173	0x3dbbac2e	0.091637
174	0x3e4479d0	0.19187093
175	0xbd9c110e	-0.076204404
176	0x3e187c4a	0.14891163
177	0xbd330d01	-0.043713573
178	0xbcb658a7	-0.02225907
179	0x3e4f1963	0.20224528
180	0xbe2bbc22	-0.16770986
181	0xbe3ee4d0	-0.18641973
182	0x3d3f5eaa	0.046721138
183	0x3e492aa3	0.19645171
184	0x3c0b7dfb	0.008513923
185	0xbde01554	-0.10941568
186	0x3ddf6c53	0.10909333
187	0x3e350bd7	0.17680298
188	0xbe1c1264	-0.1524139
189	0xbd7a7622	-0.061147816
190	0xbe3b7ec0	-0.1831007
191	0xbe1bcdb7	-0.15215193
192	0xbde30bf9	-0.11086268
193	0xbdd29b22	-0.102834955
194	0x3e529347	0.20563994
195	0x3cac11b3	0.021004533
196	0xbe22fd48	-0.15916932
197	0x3e2b6a51	0.16739775
198	0x3e5d1b2d	0.21592398
199	0x3e552de9	0.20818295
200	0xbd340c1f	-0.043956872
201	0x3d152f08	0.036421806
202	0x3d710207	0.058839824
203	0x3d671eca	0.056425847
204	0x3db5de12	0.08880247
205	0xbcc5a1ba	-0.024124969
206	0xbb7511f5	-0.0037394736
207	0xbe322635	-0.17397387
208	0xbe4a8948	-0.19778931
209	0x3e11dbd3	0.14244013
210	0x3dcbbfea	0.09948714
211	0x3e1d49e3	0.15360217
212	0xbd28a4dd	-0.04117285
213	0x3e366880	0.17813301
214	0xbe07b3f4	-0.1325224
215	0xbca50fe7	-0.020149184
216	0x3d151f5f	0.03640687
217	0xbd8c3f66	-0.0684803
218	0x3e5df854	0.21676761
219	0x3d80b199	0.06283874
220	0x3cbf0e00	0.023322105
221	0x3e54bb54	0.20774585
222	0xbd67d1b2	-0.056596465
223	0x3c27ec10	0.010249153
224	0xbb30a46e	-0.0026953476
225	0x3dd5e6fa	0.10444446
226	0xbd09105c	-0.033462867
227	0xbda5d87e	-0.08097933
228	0x3e3ccae0	0.18436766
229	0xbdbba6d4	-0.09162679
230	0x3e1d1359	0.15339412
231	0x3d12e051	0.035858456
232	0xbe13e847	-0.14444076
233	0xbe3f89da	-0.1870493
234	0xbe0ea3c6	-0.13929662
235	0x3e2207bc	0.15823263
236	0x3d37109b	0.04469357
237	0xbe04ea54	-0.12980014
238	0x3e5665cc	0.2093727
239	0xbd8b4230	-0.06799734
240	0xbe2c2bba	-0.16813555
241	0x3e407050	0.18792844
242	0xbe442880	-0.19156075
243	0xbe097a50	-0.13425565
244	0x3d752c28	0.059856564
245	0xbd085504	-0.033284202
246	0xbd77bc31	-0.060482208
247	0x3df3baca	0.119008616
248	0x3e599d1f	0.21251343
249	0xbe20b997	-0.15695797
250	0xbbf7fac7	-0.007567737
251	0x3d2b7b13	0.04186542
252	0x3dbf9ff8	0.093566835
253	0x3e018e1c	0.12651867
254	0x3e181fd6	0.14855894
255	0x3e25fbcd	0.16209336

node_predictor.0.weight f4 [64, 64]
0	0xbd59ea20	-0.053201795
1	0xbdb044f8	-0.08606905
2	0x3da753c8	0.08170277
3	0xbd345324	-0.0440246
4	0xbb3271c0	-0.0027228445
5	0xbba992e0	-0.0051749796
6	0x3c9ee400	0.019395828
7	0x3df93616	0.12168519
8	0x3ce72e50	0.028220326
9	0xbdc11654	-0.09428087
10	0xbd8a5610	-0.06754696
11	0xbc64bf20	-0.013961583
12	0x3cbaddc0	0.022810817
13	0x3d6816d4	0.056662396
14	0xbd5f2310	-0.054476798
15	0x3d160734	0.036627963
16	0x3cf2a2d8	0.029618666
17	0xbd4a22a4	-0.049349442
18	0xbd32eb24	-0.04368128
19	0xbd4e7134	-0.050400928
20	0x3dd59f16	0.10430734
21	0x3d23df0c	0.040007636
22	0xbdaa57ce	-0.08317529
23	0x3d8c38e8	0.068467915
24	0x3db2a518	0.087228954
25	0xbcab8798	-0.02093868
26	0xbdad7050	-0.084686875
27	0xbd11e394	-0.035617426
28	0xbc891c88	-0.016737238
29	0x3d1634b8	0.03667137
30	0x3d8ad9da	0.06779833
31	0x3d5c5124	0.05378832
32	0x3d6afe8c	0.05737166
33	0xbcce95e8	-0.025217965
34	0xbd809718	-0.06278819
35	0xbdbfecf6	-0.093713686
36	0x3d037ce8	0.03210154
37	0x3da4236a	0.08014567
38	0xbd6516dc	-0.055930004
39	0x3d6f47d8	0.058418125
40	0x3d6b3ce4	0.057431117
41	0xbdca5220	-0.09878945
42	0x3dac908a	0.08426006
43	0x3d8b7b2e	0.06810604
44	0xbdf91830	-0.121628165
45	0x3d334ba0	0.043773293
46	0x3ce6cdf8	0.028174385
47	0xbda99fb6	-0.082824156
48	0x3d696edc	0.05699049
49	0x3dbf7812	0.093490735
50	0x3db4b10a	0.0882283
51	0x3de68eec	0.11257729
52	0x3db24e4e	0.08706342
53	0x3d7fc804	0.06244661
54	0x3ddaeb68	0.106894314
55	0xbd92c4dc	-0.07166454
56	0xbd0ab8e8	-0.033867747
57	0xbdca02dc	-0.09863827
58	0xbd92536c	-0.07144818
59	0xbbdc5400	-0.006723881
60	0xbcaddcc0	-0.021223426
61	0xbdb5e46a	-0.08881457
62	0xbd916ca4	-0.071008
63	0x3daf22b2	0.085515395
64	0xbd7fb8e8	-0.0624322
65	0xbd105f08	-0.03524688
66	0xbbbece00	-0.005822897
67	0x3d8fdbaa	0.070243195
68	0x3d9a389e	0.0753033
69	0x3dfcf250	0.12350905
70	0x3c081d70	0.0083078
71	0x3daac300	0.083379745
72	0x3db16f3a	0.08663793
73	0xbd95aff4	-0.07308951
74	0xbddcb372	-0.10776414
75	0x3dba6b92	0.09102549
76	0xbdf476f0	-0.11936748
77	0xbdb582ee	-0.088628635
78	0x3dfa3476	0.122170374
79	0xbb4e54c0	-0.003148362
80	0x3dfb81ae	0.12280594
81	0xbdba4e9a	-0.09097023
82	0xbdb02f0a	-0.08602722
83	0x3d93ab22	0.07210375
84	0x3cdbe5a8	0.026842907
85	0x3d2e7318	0.04259023
86	0xbd9122fa	-0.070867494
87	0xbdcb21e6	-0.09918575
88	0x3df18dcc	0.11794624
89	0xbd4450f0	-0.04792875
90	0xbd87f59c	-0.06638643
91	0x3d938e6a	0.07204898
92	0x3dbfd1b0	0.093661666
93	0x3d891d4a	0.066950396
94	0xbcb63ca0	-0.022245705
95	0x3c763a00	0.015028477
96	0x3d97a2ce	0.074040994
97	0xbdaabbec	-0.083366245
98	0x3df46464	0.119332105
99	0xbde541d0	-0.11194193
100	0xbd9bd642	-0.07609226
101	0xbdf2643e	-0.11835526
102	0xbd3f9d54	-0.0467809
103	0x3d1bcd48	0.03803757
104	0x3db577a2	0.08860709
105	0x3df8a444	0.12140706
106	0x3d517fc0	0.051147223
107	0xbdf41bfa	-0.119193986
108	0x3d56ef7c	0.052474484
109	0xbd956f4c	-0.07296619
110	0x3dbb4644	0.091442615
111	0x3da179e8	0.0788458
112	0xbdc63bf8	-0.09679407
113	0xbddd813e	-0.108156666
114	0xbda7ff82	-0.08203031
115	0xbdab3a50	-0.083607316
116	0xbde86de2	-0.113490835
117	0x3bb5d5a0	0.0055491477
118	0x3d822188	0.06354052
119	0xbdd2ecca	-0.1029907
120	0x3d7b845c	0.061405525
121	0x3dd7d800	0.105392456
122	0xbdf55a4c	-0.119801134
123	0x3b375d00	0.0027979016
124	0xbd94ad24	-0.072595865
125	0xbcd703a0	-0.026246846
126	0xbd44e4a8	-0.048069626
127	0xbdf1d818	-0.11808795
128	0xbded3dea	-0.11584075
129	0x3d3966b0	0.045263946
130	0x3d98506e	0.07437216
131	0xbc92eb20	-0.017934382
132	0xbd7a1114	-0.061051443
133	0xbdad6f38	-0.08468479
134	0xbdfcd2c0	-0.12344885
135	0x3c3f1080	0.011661649
136	0xbd187f14	-0.037230566
137	0x3d90c010	0.07067883
138	0xbcefa3c0	-0.029252887
139	0xbd273fcc	-0.040832326
140	0x3de39948	0.111132205
141	0x3dffa110	0.12481892
142	0x3b6beb00	0.0035998225
143	0x3dc5e102	0.096620575
144	0xbdd10b3a	-0.102072194
145	0xbd5611e8	-0.05226317
146	0xbd13a248	-0.036043435
147	0xbd847be8	-0.06468946
148	0x3b059a00	0.002038598
149	0x3d425a78	0.04744956
150	0xbd478474	-0.0487103
151	0x3c96f840	0.018428922
152	0x3d9c0caa	0.07619603
153	0x3d85f030	0.06539953
154	0xbcc61bf0	-0.024183244
155	0xbd6a4fa8	-0.057204872
156	0x3baf4ac0	0.005349487
157	0x3d8b7f08	0.06811339
158	0x3dfec506	0.12439923
159	0xbdea8092	-0.11450304
160	0xbdb63d60	-0.08898425
161	0xbd2d2ff8	-0.042282075
162	0x3dbe1346	0.0928102
163	0xbd44cefc	-0.04804896
164	0xbd9d9324	-0.076940805
165	0x3dda36ec	0.10655007
166	0x3cf29e28	0.02961643
167	0x3da5d0ea	0.08096488
168	0xbdfdc858	-0.12391728
169	0x3de75002	0.11294557
170	0xbd77828c	-0.060427234
171	0x3daba384	0.083807975
172	0xbd587b80	-0.052852154
173	0xbdc5ae74	-0.09652415
174	0x3d9e0ecc	0.07717666
175	0xbcef00e8	-0.029175237
176	0x3daab4dc	0.083352774
177	0xbda40afa	-0.08009906
178	0xbd850476	-0.064949915
179	0xb9db4800	-0.0004182458
180	0x3dfc7cfc	0.123285264
181	0xbdae2190	-0.08502495
182	0x3d99f21c	0.07516882
183	0xbde9a192	-0.1140777
184	0x3d7af660	0.061270118
185	0x3d94e052	0.07269348
186	0xbd3fff7c	-0.04687451
187	0x3bc74860	0.006081626
188	0xbc334350	-0.0109413415
189	0x3c1c7bc0	0.009550989
190	0x3d21c470	0.039493978
191	0xbd1f92b8	-0.03895828
192	0xbdace6d8	-0.084424675
193	0x3d5c58f8	0.053795785
194	0x3d9212d2	0.07132496
195	0x3d3ec19c	0.04657136
196	0xbcd3afe8	-0.025840715
197	0xbc673080	-0.014110684
198	0xbd8fff1e	-0.070310816
199	0xbdf32b70	-0.118735194
200	0xbce9f3a8	-0.028558567
201	0x3d7afa08	0.061273605
202	0xbcf4b420	-0.029871047
203	0x3dd19e52	0.10235275
204	0xbdb4efca	-0.08834799
205	0xbd13293c	-0.035927996
206	0x3dfe67de	0.12422155
207	0x3d4e99c8	0.050439626
208	0x3c659060	0.014011472
209	0x3dbde8aa	0.09272893
210	0xbd93adca	-0.07210882
211	0xbdeeca6c	-0.11659703
212	0xbd75373c	-0.05986713
213	0xbc7cfc80	-0.01544106
214	0xbcc09510	-0.023508579
215	0xbdcb0fba	-0.09915109
216	0xbd4c478c	-0.04987292
217	0x3d5669e8	0.052347094
218	0x3df0cb92	0.11757578
219	0xbdd1b386	-0.102393195
220	0x3cf18270	0.029481143
221	0x3dd30e2e	0.10305439
222	0x3d973ade	0.07384275
223	0xbdf5750e	-0.11985217
224	0xbd0bee68	-0.03416291
225	0x3d026514	0.031834677
226	0xbc08a6e0	-0.008340567
227	0xbd74573c	-0.059653506
228	0xbd244ad0	-0.04011041
229	0x3d9b7c08	0.075920165
230	0x3a972000	0.0011529922
231	0x3c9ce928	0.019154146
232	0xbdff0abe	-0.12453221
233	0x3d31b128	0.04338184
234	0x3dc05fc0	0.09393263
235	0xbd70c1ec	-0.05877869
236	0xbc4cf0c0	-0.012508571
237	0xbd727d84	-0.059201732
238	0xbca448c0	-0.020054221
239	0x3cc89f00	0.02448988
240	0x3ddc75c0	0.107646465
241	0xbd404230	-0.04693812
242	0x3dbe7cde	0.0930116
243	0xbdfe52a6	-0.12418108
244	0x3db449c0	0.08803129
245	0xbdad7ba8	-0.08470851
246	0xbd178958	-0.036996216
247	0xbce3cc18	-0.02780728
248	0x3df2ec14	0.118614346
249	0xbc2a8e20	-0.010409862
250	0xbd0cb998	-0.034356683
251	0x3c980550	0.01855722
252	0xbdd289a2	-0.102801576
253	0xbd638eb4	-0.055556014
254	0x3d3f0084	0.04663135
255	0x3ddaa030	0.106750846

node_predictor.0.bias f4 [64]
0	0xbc20b540	-0.009808838
1	0x3d99f7a0	0.07517934
2	0xbdc1b092	-0.09457506
3	0xbce54c68	-0.027990535
4	0xbd944722	-0.0724013
5	0xbb410800	-0.0029454231
6	0x3bcb7260	0.006208703
7	0xbc9311d0	-0.01795283
8	0x3daf5f42	0.08563091
9	0xb9c36200	-0.00037266314
10	0xbca07998	-0.01958923
11	0x3d8f8f76	0.07009785
12	0x3da97df8	0.0827598
13	0xbc1f6b60	-0.00973019
14	0xbdbe8e2a	-0.093044594
15	0x3d3dbc40	0.046322107
16	0xbbcb5260	-0.006204888
17	0xbdd7402c	-0.10510287
18	0x3da12e6e	0.07870184
19	0x3db367fc	0.08760068
20	0xbcbc8698	-0.023013398
21	0x3dacf00c	0.08444223
22	0x3d1b70d4	0.0379494
23	0xbb4f4900	-0.0031629205
24	0xbd8c62fe	-0.06854819
25	0xbdfb72ca	-0.12277754
26	0x3ca44d60	0.020056427
27	0x3dc82652	0.09772934
28	0x3dee4f86	0.11636262
29	0x3d00f130	0.031480014
30	0x3d26fc6c	0.040768072
31	0x3ded6fb8	0.11593574
32	0x3d3d3e54	0.04620202
33	0x3de1129a	0.10989876
34	0xbcc40428	-0.023927763
35	0xbd3a5608	-0.045492202
36	0x3b0eaa80	0.0021769106
37	0x3c889058	0.016670391
38	0xbdc7c23c	-0.09753844
39	0x3df0888c	0.11744794
40	0x3de4b982	0.11168195
41	0xbd88136e	-0.06644331
42	0x3d728acc	0.0592144
43	0x3d55e014	0.05221565
44	0x3b1b3680	0.0023683608
45	0x3cf03bf8	0.02932547
46	0xbd924e7a	-0.071438745
47	0x3c9933b8	0.01870142
48	0xbddffc48	-0.10936791
49	0xbc7220e0	-0.014778346
50	0x3d6b2fc8	0.057418615
51	0x3d2f0bbc	0.0427358
52	0x3dc1860c	0.094493955
53	0xbbe77300	-0.0070632696
54	0xbdbd5228	-0.09244186
55	0x3d9054d4	0.0704743
56	0xbdc9b196	-0.09848325
57	0xbc140420	-0.009034187
58	0xbd9b7618	-0.07590884
59	0xbdb05aee	-0.086110935
60	0xbc240fd0	-0.010013536
61	0xbc11fec0	-0.008910835
62	0x3dfe08c0	0.12404013
63	0x3d8f3c3e	0.06993912

node_predictor.2.weight f4 [13, 64]
0	0xbd487b84	-0.04894592
1	0x3c9e2690	0.019305497
2	0xbd67ffb0	-0.056640327
3	0xbdef8d7a	-0.116969064
4	0xbd868da0	-0.065699816
5	0x3cf6b450	0.030115277
6	0x3cc3ff08	0.02392532
7	0xbb8c5ea0	-0.004283741
8	0x3db03932	0.08604659
9	0x3c16c660	0.00920257
10	0xbce35a68	-0.02775307
11	0x3d1d618c	0.038423106
12	0xbc00d6b0	-0.0078636855
13	0xbdd92c60	-0.10604167
14	0x3d9d0ce4	0.07668474
15	0x3d86c4e6	0.06580524
16	0xbd9ad6a8	-0.07560474
17	0x3d2ffdb0	0.042966545
18	0xbdc4f494	-0.09616962
19	0xbb54f240	-0.0032493025
20	0xbc25a140	-0.010109246
21	0x3d18a10c	0.03726296
22	0xbd1ae698	-0.037817568
23	0xbdc7d0ba	-0.09756608
24	0x3d7b0524	0.0612842
25	0xbde87aa8	-0.1135152
26	0xbd04217c	-0.032258496
27	0xbd43cacc	-0.047800824
28	0xbdb00fa0	-0.0859673
29	0x3c5fac20	0.013651878
30	0xbd52d1f4	-0.05146976
31	0x3dba81f0	0.09106815
32	0x3d33ddfc	0.043912873
33	0xbda69f00	-0.081357956
34	0xbd3837cc	-0.044975087
35	0xbdc847da	-0.097793296
36	0x3df40c0a	0.11916359
37	0xbd557a74	-0.052118734
38	0xbdc8418a	-0.097781256
39	0xbdf8ebb2	-0.1215433
40	0x3dab035c	0.0835025
41	0xbd03c004	-0.032165542
42	0xbdafcaa8	-0.085835755
43	0x3cc1da08	0.023663536
44	0x3dddb7da	0.108260825
45	0xbddaca32	-0.10683097
46	0xbd8cd7d8	-0.068771064
47	0xbd873b9e	-0.06603168
48	0x3ccc3d40	0.02493155
49	0x3d82e376	0.06391041
50	0x3dc55f6c	0.09637341
51	0xbdc42488	-0.0957728
52	0x3dee4fbe	0.11636303
53	0x3deedba0	0.11662984
54	0x3d81960a	0.06327446
55	0x3d8d3f66	0.06896858
56	0xbde5ce30	-0.11220968
57	0xbd8d910c	-0.06912431
58	0xbd563c88	-0.05230382
59	0x3d8f16de	0.069867834
60	0x3d8b11d4	0.0679051
61	0x3cb65ba8	0.022260502
62	0xbd5401c4	-0.051759496
63	0xbd274bc0	-0.040843725
64	0x3d8cebc0	0.06880903
65	0xbd5a9980	-0.053369045
66	0xbdd4e13a	-0.10394521
67	0xbd0551b4	-0.03254862
68	0xbb94b1c0	-0.004537791
69	0x3a2b3000	0.0006530285
70	0xbdd3f2b6	-0.10349028
71	0xbd8ace26	-0.06777601
72	0x3d7fbfa0	0.062438607
73	0x3ddb7890	0.10716355
74	0x3dfc4976	0.12318699
75	0x3c562d20	0.013072282
76	0x3ca57290	0.02019623
77	0xbdcfe7ac	-0.1015161
78	0xbdb42e68	-0.08797914
79	0xbd0a6428	-0.033786923
80	0x3c855428	0.01627548
81	0x3d9d4336	0.07678835
82	0x3c39e520	0.011346132
83	0xbbf799c0	-0.00755617
84	0x3ded56ea	0.11588843
85	0xbd924bcc	-0.07143363
86	0xbcfafa90	-0.030637056
87	0xbd45f50c	-0.048329398
88	0x3d7df198	0.06199798
89	0xbcb3d6b0	-0.021952957
90	0xbdf5c430	-0.120003104
91	0xbd2adaec	-0.041712686
92	0x3d8bdcba	0.068292096
93	0xbdff05e8	-0.124522984
94	0x3dd24926	0.10267858
95	0xbd6f81f4	-0.058473542
96	0xbd19e54c	-0.03757219
97	0xbd8315e6	-0.06400661
98	0x3db720ee	0.08941828
99	0xbbca4200	-0.0061724186
100	0x3cf19608	0.029490486
101	0x3dfae5b6	0.12250845
102	0x3c478290	0.012177125
103	0x3dbeca66	0.09315948
104	0x3d967034	0.0734562
105	0xbc25dce0	-0.0101234615
106	0xbd15a680	-0.03653574
107	0x3d20c128	0.03924671
108	0x3dc4a970	0.0960263
109	0x3cc516d0	0.02405873
110	0xbd760998	-0.060067743
111	0xbd8e096a	-0.06935389
112	0xbdda878e	-0.10670386
113	0x3d5e6564	0.054295912
114	0xbc5017b0	-0.01270096
115	0x3d192c58	0.037395805
116	0xbd771a1c	-0.060327634
117	0xbcd477a8	-0.025935963
118	0x3c78cc20	0.015185386
119	0x3b87c6e0	0.004143581
120	0xbd6cfa00	-0.057855606
121	0xbb83e2e0	-0.0040248483
122	0xbb2dd640	-0.0026525408
123	0x3deccc82	0.11562444
124	0x3c62e430	0.013848349
125	0x3d86b5ba	0.0657763
126	0xbdbea744	-0.09309247
127	0xbd62cd8c	-0.055371806
128	0xbdb859a2	-0.09001471
129	0xbdd7f224	-0.105442315
130	0xbd87dbae	-0.066336975
131	0xbdc4bb1e	-0.09606002
132	0x3da856fa	0.082197145
133	0x3d735068	0.059402853
134	0x3dc6637c	0.09686944
135	0x3caca100	0.021072865
136	0x3dc1dfa6	0.09466486
137	0x3ce8e488	0.028429285
138	0x3dcdea46	0.1005445
139	0xbde18284	-0.11011222
140	0x3d779634	0.06044598
141	0xbd68b2f0	-0.056811273
142	0x3be566e0	0.007000789
143	0x3c9e80a0	0.019348443
144	0xbdf8ff46	-0.121580645
145	0x3d4c67b4	0.049903587
146	0xbdbc57ae	-0.09196411
147	0xbdb97c6c	-0.09056935
148	0xbde14bfa	-0.110008195
149	0x3da79ca2	0.08184172
150	0xbdc2e9fc	-0.09517285
151	0x3daaf488	0.08347422
152	0xbdcaafaa	-0.098967865
153	0x3cdea7b0	0.027179569
154	0xbdeb4c4c	-0.11489162
155	0x3d79a904	0.0609522
156	0x3cf89218	0.0303431
157	0x3d96c1f4	0.073612124
158	0x3bd1d4a0	0.0064035207
159	0x3d82d924	0.063890725
160	0x3dbacfa6	0.09121637
161	0xbd113710	-0.035452902
162	0xbd13a64c	-0.036047265
163	0xbdf716b8	-0.1206488
164	0x3ca28e10	0.019843131
165	0xbd914f7e	-0.0709524
166	0x3dd5786c	0.10423359
167	0xbcbdb808	-0.023159042
168	0x3d23a930	0.03995627
169	0x3c98c8d0	0.018650442
170	0xbdd429bc	-0.10359523
171	0xbb694180	-0.003559202
172	0x3d01eec0	0.03172183
173	0xbd787464	-0.060657874
174	0x3c0816d0	0.00830622
175	0x3cf7b4d8	0.0302376
176	0xbdb68544	-0.08912137
177	0x3dac52b8	0.08414215
178	0x3de7026c	0.11279759
179	0xbd8cdea0	-0.068784
180	0x3ddfbbbc	0.10924479
181	0xbcbf3a60	-0.023343265
182	0x3d9611a8	0.073275864
183	0x3d2eac10	0.04264456
184	0xbd7337ac	-0.059379265
185	0xbd0cfec0	-0.034422636
186	0xbc5a5150	-0.0133250505
187	0xbde60ace	-0.112325296
188	0x3da39fb6	0.07989447
189	0xbdc56952	-0.09639229
190	0xbd431338	-0.04762575
191	0xbdf65dfe	-0.12029646
192	0x3b6fa1c0	0.0036564916
193	0xbce105b8	-0.027468547
194	0x3d937926	0.072008416
195	0x3df3fc78	0.11913389
196	0xbd036b3c	-0.03208469
197	0x3d5138e4	0.051079646
198	0x3df70664	0.12061766
199	0xbda9432c	-0.08264765
200	0xbc420760	-0.011842579
201	0xbdbc25ce	-0.09186898
202	0x3c5d6620	0.013513118
203	0x3d995830	0.074875236
204	0x3d95296a	0.0728329
205	0xbd79baa0	-0.060968995
206	0x3d2d7eb4	0.04235716
207	0xbcb17e98	-0.02166681
208	0x3c1670d0	0.00918217
209	0xbd95dbae	-0.07317291
210	0x3b825260	0.003977105
211	0x3dc50118	0.09619349
212	0x3dd041b4	0.10168782
213	0x3b9b2e00	0.0047357082
214	0xbc2083e0	-0.009797066
215	0xbca369c0	-0.019947886
216	0xbdb61c12	-0.08892073
217	0xbde2926c	-0.11063084
218	0xbdb6dfec	-0.089294285
219	0x3de4c11c	0.11169645
220	0xbdc0e7d6	-0.09419219
221	0x3da864b4	0.082223326
222	0xbdb61ea0	-0.0889256
223	0x3d9d1a4a	0.0767103
224	0xbcc06150	-0.023483902
225	0xbce4f650	-0.027949482
226	0x3d8c8554	0.06861368
227	0x3d977ffe	0.073974594
228	0xbdae1572	-0.08500184
229	0xbdf5991c	-0.11992094
230	0x3d9e434c	0.077276796
231	0xbc8e1af8	-0.017346844
232	0x3c8e8f98	0.017402455
233	0xbdc78880	-0.09742832
234	0xbd4fc2d4	-0.050722912
235	0xbdc16ef6	-0.09444992
236	0x3dabde20	0.08391976
237	0x3c3b37c0	0.011426866
238	0x3dc8af20	0.097990274
239	0x3d200358	0.03906569
240	0x3ce43f08	0.027862087
241	0xbcdb6b18	-0.026784465
242	0x3b346040	0.002752319
243	0x3d247eac	0.040159866
244	0xbdaecab2	-0.08534755
245	0x3cca5670	0.02469942
246	0xbd0c066c	-0.034185812
247	0xbdd66e70	-0.10470283
248	0xbca851c8	-0.020546809
249	0x3da11a96	0.07866399
250	0xbbd13640	-0.006384641
251	0x3d2769a0	0.040872216
252	0xbd946548	-0.0724588
253	0x3dd2c0e4	0.10290697
254	0xbd08c1ac	-0.033387825
255	0x3d94899a	0.07252808
